app/text_gen_transformer/weights/model.pt (torch, 286854 bytes, 29 tensors)

mask f4 [32, 32]
000000 00 00 80 3f 00 00 00 00 00 00 00 00 00 00 00 00
       1.0 0.0 0.0 0.0
000010 00 00 00 00 00 00 00 00 00 00 00 00 00 00 00 00
       0.0 0.0 0.0 0.0
000020 00 00 00 00 00 00 00 00 00 00 00 00 00 00 00 00
       0.0 0.0 0.0 0.0
000030 00 00 00 00 00 00 00 00 00 00 00 00 00 00 00 00
       0.0 0.0 0.0 0.0
000040 00 00 00 00 00 00 00 00 00 00 00 00 00 00 00 00
       0.0 0.0 0.0 0.0
000050 00 00 00 00 00 00 00 00 00 00 00 00 00 00 00 00
       0.0 0.0 0.0 0.0
000060 00 00 00 00 00 00 00 00 00 00 00 00 00 00 00 00
       0.0 0.0 0.0 0.0
000070 00 00 00 00 00 00 00 00 00 00 00 00 00 00 00 00
       0.0 0.0 0.0 0.0
000080 00 00 80 3f 00 00 80 3f 00 00 00 00 00 00 00 00
       1.0 1.0 0.0 0.0
000090 00 00 00 00 00 00 00 00 00 00 00 00 00 00 00 00
       0.0 0.0 0.0 0.0
0000a0 00 00 00 00 00 00 00 00 00 00 00 00 00 00 00 00
       0.0 0.0 0.0 0.0
0000b0 00 00 00 00 00 00 00 00 00 00 00 00 00 00 00 00
       0.0 0.0 0.0 0.0
0000c0 00 00 00 00 00 00 00 00 00 00 00 00 00 00 00 00
       0.0 0.0 0.0 0.0
0000d0 00 00 00 00 00 00 00 00 00 00 00 00 00 00 00 00
       0.0 0.0 0.0 0.0
0000e0 00 00 00 00 00 00 00 00 00 00 00 00 00 00 00 00
       0.0 0.0 0.0 0.0
0000f0 00 00 00 00 00 00 00 00 00 00 00 00 00 00 00 00
       0.0 0.0 0.0 0.0
000100 00 00 80 3f 00 00 80 3f 00 00 80 3f 00 00 00 00
       1.0 1.0 1.0 0.0
000110 00 00 00 00 00 00 00 00 00 00 00 00 00 00 00 00
       0.0 0.0 0.0 0.0
000120 00 00 00 00 00 00 00 00 00 00 00 00 00 00 00 00
       0.0 0.0 0.0 0.0
000130 00 00 00 00 00 00 00 00 00 00 00 00 00 00 00 00
       0.0 0.0 0.0 0.0
000140 00 00 00 00 00 00 00 00 00 00 00 00 00 00 00 00
       0.0 0.0 0.0 0.0
000150 00 00 00 00 00 00 00 00 00 00 00 00 00 00 00 00
       0.0 0.0 0.0 0.0
000160 00 00 00 00 00 00 00 00 00 00 00 00 00 00 00 00
       0.0 0.0 0.0 0.0
000170 00 00 00 00 00 00 00 00 00 00 00 00 00 00 00 00
       0.0 0.0 0.0 0.0
000180 00 00 80 3f 00 00 80 3f 00 00 80 3f 00 00 80 3f
       1.0 1.0 1.0 1.0
000190 00 00 00 00 00 00 00 00 00 00 00 00 00 00 00 00
       0.0 0.0 0.0 0.0
0001a0 00 00 00 00 00 00 00 00 00 00 00 00 00 00 00 00
       0.0 0.0 0.0 0.0
0001b0 00 00 00 00 00 00 00 00 00 00 00 00 00 00 00 00
       0.0 0.0 0.0 0.0
0001c0 00 00 00 00 00 00 00 00 00 00 00 00 00 00 00 00
       0.0 0.0 0.0 0.0
0001d0 00 00 00 00 00 00 00 00 00 00 00 00 00 00 00 00
       0.0 0.0 0.0 0.0
0001e0 00 00 00 00 00 00 00 00 00 00 00 00 00 00 00 00
       0.0 0.0 0.0 0.0
0001f0 00 00 00 00 00 00 00 00 00 00 00 00 00 00 00 00
       0.0 0.0 0.0 0.0
000200 00 00 80 3f 00 00 80 3f 00 00 80 3f 00 00 80 3f
       1.0 1.0 1.0 1.0
000210 00 00 80 3f 00 00 00 00 00 00 00 00 00 00 00 00
       1.0 0.0 0.0 0.0
000220 00 00 00 00 00 00 00 00 00 00 00 00 00 00 00 00
       0.0 0.0 0.0 0.0
000230 00 00 00 00 00 00 00 00 00 00 00 00 00 00 00 00
       0.0 0.0 0.0 0.0
000240 00 00 00 00 00 00 00 00 00 00 00 00 00 00 00 00
       0.0 0.0 0.0 0.0
000250 00 00 00 00 00 00 00 00 00 00 00 00 00 00 00 00
       0.0 0.0 0.0 0.0
000260 00 00 00 00 00 00 00 00 00 00 00 00 00 00 00 00
       0.0 0.0 0.0 0.0
000270 00 00 00 00 00 00 00 00 00 00 00 00 00 00 00 00
       0.0 0.0 0.0 0.0
000280 00 00 80 3f 00 00 80 3f 00 00 80 3f 00 00 80 3f
       1.0 1.0 1.0 1.0
000290 00 00 80 3f 00 00 80 3f 00 00 00 00 00 00 00 00
       1.0 1.0 0.0 0.0
0002a0 00 00 00 00 00 00 00 00 00 00 00 00 00 00 00 00
       0.0 0.0 0.0 0.0
0002b0 00 00 00 00 00 00 00 00 00 00 00 00 00 00 00 00
       0.0 0.0 0.0 0.0
0002c0 00 00 00 00 00 00 00 00 00 00 00 00 00 00 00 00
       0.0 0.0 0.0 0.0
0002d0 00 00 00 00 00 00 00 00 00 00 00 00 00 00 00 00
       0.0 0.0 0.0 0.0
0002e0 00 00 00 00 00 00 00 00 00 00 00 00 00 00 00 00
       0.0 0.0 0.0 0.0
0002f0 00 00 00 00 00 00 00 00 00 00 00 00 00 00 00 00
       0.0 0.0 0.0 0.0
000300 00 00 80 3f 00 00 80 3f 00 00 80 3f 00 00 80 3f
       1.0 1.0 1.0 1.0
000310 00 00 80 3f 00 00 80 3f 00 00 80 3f 00 00 00 00
       1.0 1.0 1.0 0.0
000320 00 00 00 00 00 00 00 00 00 00 00 00 00 00 00 00
       0.0 0.0 0.0 0.0
000330 00 00 00 00 00 00 00 00 00 00 00 00 00 00 00 00
       0.0 0.0 0.0 0.0
000340 00 00 00 00 00 00 00 00 00 00 00 00 00 00 00 00
       0.0 0.0 0.0 0.0
000350 00 00 00 00 00 00 00 00 00 00 00 00 00 00 00 00
       0.0 0.0 0.0 0.0
000360 00 00 00 00 00 00 00 00 00 00 00 00 00 00 00 00
       0.0 0.0 0.0 0.0
000370 00 00 00 00 00 00 00 00 00 00 00 00 00 00 00 00
       0.0 0.0 0.0 0.0
000380 00 00 80 3f 00 00 80 3f 00 00 80 3f 00 00 80 3f
       1.0 1.0 1.0 1.0
000390 00 00 80 3f 00 00 80 3f 00 00 80 3f 00 00 80 3f
       1.0 1.0 1.0 1.0
0003a0 00 00 00 00 00 00 00 00 00 00 00 00 00 00 00 00
       0.0 0.0 0.0 0.0
0003b0 00 00 00 00 00 00 00 00 00 00 00 00 00 00 00 00
       0.0 0.0 0.0 0.0
0003c0 00 00 00 00 00 00 00 00 00 00 00 00 00 00 00 00
       0.0 0.0 0.0 0.0
0003d0 00 00 00 00 00 00 00 00 00 00 00 00 00 00 00 00
       0.0 0.0 0.0 0.0
0003e0 00 00 00 00 00 00 00 00 00 00 00 00 00 00 00 00
       0.0 0.0 0.0 0.0
0003f0 00 00 00 00 00 00 00 00 00 00 00 00 00 00 00 00
       0.0 0.0 0.0 0.0

embedding.weight f4 [128, 64]
000000 76 e4 98 3e 1c e4 aa 3c 14 a0 0a be e6 16 1b bf
       0.29861802 0.020860724 -0.13537627 -0.60581815
000010 e9 ca f2 3e 0c 09 80 3d ef c0 c7 be c9 a7 84 bf
       0.47420433 0.062517256 -0.39014384 -1.0363704
000020 d7 74 60 3f ef b1 a9 3e f8 8a 72 bf 13 3a 99 3e
       0.87678283 0.33143565 -0.947433 0.2992712
000030 0c ee 69 3e 4b f2 8e 3e d1 14 d5 bf a0 15 ba 3e
       0.22844714 0.2791923 -1.6646978 0.36344624
000040 89 70 9a 3f 26 32 f4 bf fe a8 69 bf 99 2d de 3e
       1.2065593 -1.9077804 -0.91273487 0.43394163
000050 c6 90 93 3e 26 e5 7f 3e 5a 9f 8c 3e 63 d1 69 bf
       0.2882139 0.24989757 0.27465326 -0.91335124
000060 79 7b bd 3d c0 84 d3 be 92 bf d5 3f 25 80 a5 bf
       0.09252066 -0.41312218 1.6699088 -1.2929732
000070 38 e1 bb be d7 4c f2 bd 52 47 3d bf f8 f9 80 bf
       -0.36695266 -0.11831062 -0.7393695 -1.0076284
000080 a7 70 3c 3f 34 1a ad bf 48 49 ad 3f c5 0f 78 bf
       0.73609394 -1.3523622 1.3537989 -0.9689906
000090 1f 21 ce 3e 7e 86 65 bf f2 90 9b bf 34 fd 1f bd
       0.40259644 -0.89658344 -1.2153609 -0.039059833
0000a0 07 ba d0 bf 35 89 10 c0 ec ff 3e bf 98 b3 40 bf
       -1.6306771 -2.2583745 -0.74609256 -0.7527404
0000b0 3f 38 c4 3e e7 4b 0c bf 4f 0b db 3f 34 96 e9 3e
       0.38324162 -0.5480332 1.7112826 0.45622408
0000c0 93 0a 63 3e 33 dc 19 3f f9 28 55 bd 44 ea a5 3f
       0.22172002 0.6010162 -0.052041028 1.2962117
0000d0 47 00 a9 bf f2 4a c2 bf a0 c8 be bf d1 f9 89 3f
       -1.320321 -1.5179121 -1.4904976 1.0779363
0000e0 df 91 be be ad ae 79 3f 33 9a 3c 40 64 f6 b4 bf
       -0.37220666 0.9753216 2.9469116 -1.4137692
0000f0 cf 39 ab 3f 7d 9b 00 c0 cc 7b 9b 3e 7d 1e 8d be
       1.3377017 -2.0094903 0.30367887 -0.27562323
000100 26 60 ab 3e 16 62 8b 3f 5e 38 e2 3e 5a 42 22 bf
       0.33471793 1.0889308 0.4418363 -0.63382494
000110 7e 73 c7 3f e3 ca 48 bf 15 a7 72 3f d0 93 16 c0
       1.558212 -0.7843458 0.94786197 -2.3527718
000120 46 f3 da 3c 7d 3a 51 bf 3a 3d 92 3f 11 03 c2 3f
       0.02672733 -0.8172987 1.1424935 1.5157186
000130 b1 3f bb be ce 30 4b bf 53 b2 a1 bf b9 d7 a3 be
       -0.3657203 -0.79371345 -1.2632545 -0.3200052
000140 78 a4 03 40 64 70 9b bf 69 3b da bf 98 d4 8d bf
       2.0569134 -1.2143674 -1.704938 -1.1080503
000150 e0 33 ab be d6 28 c9 3b d2 eb 92 3f d5 3f c5 3f
       -0.33438015 0.006138901 1.1478217 1.5410105
000160 83 2b da 3d d8 2b 96 bf b5 8b f3 be 0c f0 fd bd
       0.106528305 -1.173213 -0.47567526 -0.12399301
000170 88 cf 7f be 66 b4 3d 3f 68 8a b4 bf 32 3e 88 bf
       -0.2498151 0.7410339 -1.4104738 -1.064398
000180 e6 0d 66 3f 54 b3 0b bf 25 99 34 3e 85 8a 02 bf
       0.8986496 -0.5457051 0.17636545 -0.50992614
000190 3a e1 2f 3d da 22 8f 3c 7c cd 5b bf e1 74 fc 3f
       0.042939402 0.017472673 -0.8586042 1.9723169
0001a0 ef d3 8e 3f c8 c3 fb be 36 c4 db bf 01 9d 85 3f
       1.1158427 -0.49172807 -1.7169254 1.0438539
0001b0 7c c2 bf 3f 55 28 4b 3f 21 38 e2 be 95 c1 00 c0
       1.4981227 0.79358417 -0.44183448 -2.0118153
0001c0 59 fd fa 3e 1c 3e 92 bf 6e f1 23 3d a1 66 de bf
       0.49021414 -1.1425204 0.040025167 -1.737507
0001d0 d3 eb d2 3e f5 15 dc 3f 16 9e eb 3f 4e 80 58 3d
       0.41195545 1.7194201 1.8407619 0.052856736
0001e0 bc 5c b4 3b 74 b5 ad be 99 b0 8f be 74 cc 2a 3f
       0.005504219 -0.339275 -0.2806442 0.6671822
0001f0 7f 59 54 3f 0b 11 83 bf 08 6e 0b bf 20 a3 31 3f
       0.8294906 -1.0239576 -0.5446477 0.69389534
000200 09 5a a4 bf 69 5f e2 bf 1c f4 a5 3e a9 7c f9 3d
       -1.2839977 -1.7685367 0.32412803 0.1218198
000210 25 86 c2 3e ce 8d 5a 3f 3f ea 3b 3f 9c 84 9d be
       0.3799297 0.85372627 0.73404306 -0.30765235
000220 db 2f dc bf ec 2f a1 3f 59 b0 90 3f 09 85 26 3e
       -1.7202104 1.259275 1.1303817 0.16261686
000230 fb 32 8d 3f 7e 14 37 3f 6e a4 e3 3f 2f d1 83 3f
       1.1031183 0.71515644 1.7784555 1.0298213
000240 39 c3 08 3e 5f de e9 bf 77 48 d1 3e 77 a5 68 bf
       0.13355722 -1.8270987 0.408756 -0.9087748
000250 b6 c8 2a 3f d3 a1 72 3d 6b aa e2 3e 20 31 9c be
       0.6671251 0.05923636 0.44270644 -0.3050623
000260 96 e6 23 bf 16 93 43 3f 3b f6 91 bf bc 23 a5 be
       -0.6402372 0.7639631 -1.1403269 -0.32253826
000270 63 be 8a bf 5f ae 23 bf 49 1d e2 3f 0f 82 c3 3e
       -1.0839351 -0.63937944 1.7665187 0.38185164
000280 9f db ca 3f cd b1 63 bf 9a 8f b2 3e 59 de 8a be
       1.5848273 -0.8894318 0.34875184 -0.27122763
000290 02 66 1b be d3 e6 1d 3e d7 c7 3a 3f a2 9a 13 bf
       -0.15175632 0.15420084 0.7296118 -0.57657826
0002a0 d9 56 96 bf 34 c8 61 3f da 83 49 be e0 bf 25 bf
       -1.1745254 0.8819611 -0.19679204 -0.64745903
0002b0 b6 3e 9a 3f 48 ab 8f bd 97 ba 55 bf f5 31 05 bf
       1.2050388 -0.07015091 -0.8348784 -0.52029353
0002c0 28 f0 80 3f 64 15 45 bf 26 da 8b bd 98 00 cc bf
       1.007329 -0.76985765 -0.06828718 -1.5937681
0002d0 be 7b 35 3f ac 9b c7 bd a1 c8 c2 3e c9 a1 bf bf
       0.7089194 -0.09746489 0.38043693 -1.4971248
0002e0 e6 56 3e bf b3 78 c3 be f2 ac 75 3e 5a 53 e7 bd
       -0.74351346 -0.38178024 0.23991755 -0.11295195
0002f0 24 7c 90 3d 9f 4d 25 3f b3 ff 63 3f 64 fa a1 3f
       0.07054928 0.64571565 0.8906204 1.2654538
000300 ac 60 08 bf a4 b2 38 bf eb 90 23 be 82 78 ec be
       -0.5327251 -0.72147584 -0.1597325 -0.4618569
000310 73 de a4 3e 29 24 ee 3e 33 86 dd bf cd 8b 8d bf
       0.32200965 0.46511963 -1.7306579 -1.1058289
000320 2e 08 9f bf 58 3d 3c 40 bc 7c 97 bf 76 96 55 bf
       -1.2424371 2.9412441 -1.1834941 -0.8343271
000330 e4 3b de 3f 9f 53 cf 3e 80 04 10 be c7 05 1e bf
       1.7362027 0.40493485 -0.14064217 -0.61727566
000340 a6 a0 ba bf 09 6b 9e bf 3b 97 e7 3e 82 a9 8d bf
       -1.4580276 -1.2376415 0.45232567 -1.1067355
000350 71 18 67 bd 6c ec d7 3e e5 b0 0f 3f ef 1a e5 bf
       -0.056419794 0.42172563 0.56129295 -1.7898844
000360 b3 eb b7 bc 58 13 93 be 4a 4f 54 3e ae 29 e8 bf
       -0.022451257 -0.28725696 0.20733371 -1.813772
000370 b4 d8 09 3f 3a 39 f4 bf 7a cb 67 bf c2 db eb be
       0.5384629 -1.9079964 -0.90544856 -0.460661
000380 98 ec 4b 3f 44 1d 29 40 17 c1 47 be d7 27 5e bf
       0.7965789 2.6424112 -0.19507252 -0.8677954
000390 9e a8 e2 bf 21 57 0b 3f 97 59 b0 bf e7 c8 54 bf
       -1.7707708 0.54429823 -1.3777341 -0.8311905
0003a0 f9 70 f0 be 5b d9 6a bf df ac 8b 3f 0a a9 4d 3f
       -0.4696119 -0.9173791 1.0912131 0.8033606
0003b0 f2 03 6b bf 4e aa c5 3e df 4e 6b be 09 c8 13 bf
       -0.91802895 0.38606495 -0.22979306 -0.57727104
0003c0 da e3 ad 3f ce 76 20 3f 06 2d 9b 3f 62 fa d1 be
       1.358516 0.6268128 1.2123115 -0.4101134
0003d0 59 91 e3 be ac e0 46 bd 46 a7 9e be e6 9a 7f 3f
       -0.4444683 -0.048554108 -0.30986995 0.9984573
0003e0 95 f5 15 bf 99 b7 87 3e d7 5f 49 bf c6 34 c4 3d
       -0.58577853 0.2650726 -0.78661865 0.09580378
0003f0 05 09 95 3f b8 e4 ac bf 3b 2b 32 bf 11 9a a7 bf
       1.1643378 -1.35073 -0.69597214 -1.3093892

pos_encoding.pe f4 [32, 64]
000000 00 00 00 00 00 00 80 3f 00 00 00 00 00 00 80 3f
       0.0 1.0 0.0 1.0
000010 00 00 00 00 00 00 80 3f 00 00 00 00 00 00 80 3f
       0.0 1.0 0.0 1.0
000020 00 00 00 00 00 00 80 3f 00 00 00 00 00 00 80 3f
       0.0 1.0 0.0 1.0
000030 00 00 00 00 00 00 80 3f 00 00 00 00 00 00 80 3f
       0.0 1.0 0.0 1.0
000040 00 00 00 00 00 00 80 3f 00 00 00 00 00 00 80 3f
       0.0 1.0 0.0 1.0
000050 00 00 00 00 00 00 80 3f 00 00 00 00 00 00 80 3f
       0.0 1.0 0.0 1.0
000060 00 00 00 00 00 00 80 3f 00 00 00 00 00 00 80 3f
       0.0 1.0 0.0 1.0
000070 00 00 00 00 00 00 80 3f 00 00 00 00 00 00 80 3f
       0.0 1.0 0.0 1.0
000080 00 00 00 00 00 00 80 3f 00 00 00 00 00 00 80 3f
       0.0 1.0 0.0 1.0
000090 00 00 00 00 00 00 80 3f 00 00 00 00 00 00 80 3f
       0.0 1.0 0.0 1.0
0000a0 00 00 00 00 00 00 80 3f 00 00 00 00 00 00 80 3f
       0.0 1.0 0.0 1.0
0000b0 00 00 00 00 00 00 80 3f 00 00 00 00 00 00 80 3f
       0.0 1.0 0.0 1.0
0000c0 00 00 00 00 00 00 80 3f 00 00 00 00 00 00 80 3f
       0.0 1.0 0.0 1.0
0000d0 00 00 00 00 00 00 80 3f 00 00 00 00 00 00 80 3f
       0.0 1.0 0.0 1.0
0000e0 00 00 00 00 00 00 80 3f 00 00 00 00 00 00 80 3f
       0.0 1.0 0.0 1.0
0000f0 00 00 00 00 00 00 80 3f 00 00 00 00 00 00 80 3f
       0.0 1.0 0.0 1.0
000100 a4 6a 57 3f 41 51 0a 3f ce 7a 2e 3f b0 54 3b 3f
       0.84147096 0.54030234 0.68156135 0.731761
000110 ba 7d 08 3f 0d 94 58 3f f1 90 d1 3e c6 92 69 3f
       0.53316844 0.8460091 0.40930894 0.91239583
000120 3e 39 9f 3e 6b 4e 73 3f 25 8f 70 3e f1 d5 78 3f
       0.3109836 0.9504153 0.23492105 0.9720145
000130 3a 23 35 3e 83 f6 7b 3f f3 25 08 3e 28 ba 7d 3f
       0.17689219 0.9842302 0.13295726 0.99112177
000140 76 75 cc 3d 98 b8 7e 3f 36 6f 99 3d d1 47 7f 3f
       0.099833414 0.9950042 0.07491915 0.9971896
000150 ae 36 66 3d 68 98 7f 3f fa ac 2c 3d bd c5 7f 3f
       0.05620449 0.9984193 0.04215715 0.999111
000160 5b 81 01 3d 3c df 7f 3f a5 3e c2 3c 93 ed 7f 3f
       0.031617504 0.99950004 0.023711512 0.99971884
000170 42 ab 91 3c a3 f5 7f 3f 49 7a 5a 3c 2c fa 7f 3f
       0.017781857 0.99984187 0.013334819 0.99991107
000180 57 d6 23 3c b9 fc 7f 3f 16 b9 f5 3b 28 fe 7f 3f
       0.009999833 0.99995 0.0074988706 0.99997187
000190 5a 44 b8 3b f7 fe 7f 3f 5a 2e 8a 3b 6b ff 7f 3f
       0.0056233825 0.9999842 0.0042169513 0.9999911
0001a0 1c 3e 4f 3b ac ff 7f 3f 03 69 1b 3b d1 ff 7f 3f
       0.0031622713 0.999995 0.0023713715 0.9999972
0001b0 20 15 e9 3a e6 ff 7f 3f 8b c9 ae 3a f1 ff 7f 3f
       0.0017782785 0.99999845 0.0013335211 0.9999991
0001c0 6d 12 83 3a f8 ff 7f 3f 89 94 44 3a fb ff 7f 3f
       0.0009999998 0.9999995 0.000749894 0.9999997
0001d0 13 6a 13 3a fd ff 7f 3f 21 17 dd 39 ff ff 7f 3f
       0.0005623411 0.9999998 0.00042169637 0.99999994
0001e0 61 cb a5 39 ff ff 7f 3f 0d a8 78 39 00 00 80 3f
       0.00031622782 0.99999994 0.00023713727 1.0
0001f0 53 77 3a 39 00 00 80 3f 6d d4 0b 39 00 00 80 3f
       0.00017782794 1.0 0.00013335208 1.0
000200 b7 c7 68 3f 33 11 d5 be d9 5a 7f 3f 53 4d 91 3d
       0.9092974 -0.41614684 0.99748 0.070948265
000210 0a f2 66 3f b2 e8 dc 3e 12 35 3f 3f 02 39 2a 3f
       0.9021307 0.43146282 0.74690354 0.66493237
000220 1b 54 17 3f ec 7b 4e 3f b5 d3 e9 3e 69 be 63 3f
       0.5911271 0.8065784 0.45669332 0.8896242
000230 f6 47 b2 3e a6 fa 6f 3f 82 f0 86 3e f5 f2 76 3f
       0.34820527 0.93741834 0.26355368 0.96464473
000240 f8 6f 4b 3e a5 e5 7a 3f d3 00 19 3e 4f 20 7d 3f
       0.19866931 0.9800666 0.1494172 0.98877424
000250 86 d9 e5 3d f3 61 7e 3f ae 85 ac 3d 0e 17 7f 3f
       0.1122313 0.9936821 0.08423935 0.99644554
000260 c8 70 81 3d f9 7c 7f 3f aa 30 42 3d 4e b6 7f 3f
       0.063203394 0.9980007 0.04740969 0.9988755
000270 5c a5 11 3d 8e d6 7f 3f 50 75 da 3c b1 e8 7f 3f
       0.03555809 0.9993676 0.026667267 0.99964434
000280 3e d4 a3 3c e5 f2 7f 3f 51 b7 75 3c a1 f8 7f 3f
       0.019998666 0.9998 0.014997319 0.9998875
000290 9b 43 38 3c db fb 7f 3f 0a 2e 0a 3c ab fd 7f 3f
       0.011246587 0.99993676 0.008433828 0.9999644
0002a0 d8 3d cf 3b b1 fe 7f 3f e7 68 9b 3b 43 ff 7f 3f
       0.006324511 0.99998003 0.00474273 0.99998873
0002b0 08 15 69 3b 96 ff 7f 3f 80 c9 2e 3b c4 ff 7f 3f
       0.0035565514 0.9999937 0.0026670396 0.9999964
0002c0 68 12 03 3b df ff 7f 3f 85 94 c4 3a ed ff 7f 3f
       0.0019999985 0.99999803 0.0014997876 0.99999887
0002d0 12 6a 93 3a f5 ff 7f 3f 1f 17 5d 3a fa ff 7f 3f
       0.0011246821 0.99999934 0.0008433926 0.99999964
0002e0 60 cb 25 3a fd ff 7f 3f 0c a8 f8 39 fe ff 7f 3f
       0.0006324556 0.9999998 0.0004742745 0.9999999
0002f0 53 77 ba 39 ff ff 7f 3f 6d d4 8b 39 00 00 80 3f
       0.00035565588 0.99999994 0.00026670416 1.0
000300 c3 81 10 3e 26 70 7d bf de 3c 47 3f ce bf 20 bf
       0.14112 -0.9899925 0.7782725 -0.6279267
000310 d7 45 7e 3f ab 7f ed bd 63 21 74 3f 63 18 9a 3e
       0.9932532 -0.11596616 0.95363444 0.3009673
000320 c2 09 50 3f 58 2f 15 3f b7 24 27 3f a2 e7 41 3f
       0.8126489 0.58275366 0.652904 0.7574407
000330 6c 2f 02 3f 29 6d 5c 3f a7 68 c7 3e 37 c9 6b 3f
       0.5085361 0.86104065 0.3894703 0.92103904
000340 6c 4e 97 3e ef 90 74 3f e2 6d 64 3e 92 8c 79 3f
       0.2955202 0.9553365 0.22307542 0.9748012
000350 d7 ee 2b 3e 9e 5d 7c 3f 2c 33 01 3e 43 f4 7d 3f
       0.16790329 0.9858035 0.12617177 0.9920084
000360 c0 ff c1 3d 4f d9 7e 3f 06 93 91 3d 3a 5a 7f 3f
       0.094726086 0.99550337 0.071081206 0.9974705
000370 4e 69 5a 3d c3 a2 7f 3f c5 d1 23 3d 90 cb 7f 3f
       0.053323083 0.9985773 0.039994974 0.99919987
000380 1f b9 f5 3c 83 e2 7f 3f 47 47 b8 3c 6b ef 7f 3f
       0.0299955 0.99955004 0.022494925 0.999747
000390 c6 31 8a 3c ad f6 7f 3f 46 44 4f 3c c1 fa 7f 3f
       0.016869437 0.9998577 0.012650555 0.99991995
0003a0 0d 6e 1b 3c 0d fd 7f 3f 13 1d e9 3b 58 fe 7f 3f
       0.009486687 0.999955 0.0071140616 0.9999747
0003b0 a8 cf ae 3b 11 ff 7f 3f 13 17 83 3b 7a ff 7f 3f
       0.005334813 0.99998575 0.0040005534 0.999992
0003c0 92 9b 44 3b b5 ff 7f 3f 60 6f 13 3b d6 ff 7f 3f
       0.0029999954 0.9999955 0.0022496805 0.9999975
0003d0 17 1f dd 3a e8 ff 7f 3f 56 d1 a5 3a f3 ff 7f 3f
       0.0016870227 0.99999857 0.0012650888 0.9999992
0003e0 10 b1 78 3a f9 ff 7f 3f 09 7e 3a 3a fc ff 7f 3f
       0.00094868336 0.9999996 0.00071141176 0.99999976
0003f0 7e d9 0b 3a fe ff 7f 3f a4 be d1 39 ff ff 7f 3f
       0.0005334838 0.9999999 0.00040005625 0.99999994

layers.0.ln1.weight f4 [64]
000000 8a b0 43 3f 71 ce 07 3f f5 28 13 3f 82 5c 0b 3f
       0.7644125 0.5304938 0.5748437 0.5443803
000010 5d 3a 22 3f 60 45 3d 3f 86 0b 3a 3f c3 60 5b 3f
       0.63370305 0.7393398 0.72673833 0.8569452
000020 80 9f 59 3f 91 66 7b 3f cf 35 5c 3f 62 3f 52 3f
       0.85009 0.9820338 0.86019605 0.82127964
000030 2a e0 8b 3f cf 4c 8f 3f a8 e4 84 3f 4e c9 9d 3f
       1.0927784 1.1195315 1.038228 1.2327058
000040 09 7c 71 3f 49 b0 a1 3f e0 3d 8c 3f 0a 8b 92 3f
       0.9432989 1.2631923 1.0956383 1.1448681
000050 43 13 94 3f c7 da 8c 3f 59 37 88 3f 04 74 33 3f
       1.1568378 1.1004266 1.0641891 0.700989
000060 86 db 8e 3f 71 87 6a 3f f1 30 92 3f e5 16 4d 3f
       1.1160743 0.9161292 1.1421186 0.8011306
000070 a9 ad 7e 3f e1 c7 6c 3f 0a b0 95 3f de 23 03 3f
       0.99483734 0.9249249 1.1694348 0.51226604
000080 54 24 5b 3f a5 d7 13 3f 69 1c 0d 3f 09 8a 39 3f
       0.8560231 0.5775092 0.55121475 0.7247625
000090 af bd 3b 3f 89 29 13 3f ae 97 74 3f 53 71 1f 3f
       0.7333631 0.5748525 0.95543945 0.62282294
0000a0 d2 49 6c 3f 49 1b 07 3f f6 9b 84 3f e4 b1 67 3f
       0.9230014 0.5277601 1.0360096 0.90505815
0000b0 12 51 01 3f 4d dd 3c 3f b3 c7 ac 3e 3c 2a 11 3f
       0.5051433 0.7377518 0.33746108 0.5670507
0000c0 a1 d2 51 3f 30 89 41 3f 46 9b 2e 3f 30 f2 22 3f
       0.8196202 0.75599957 0.6820568 0.636508
0000d0 59 06 82 3f e0 0a f1 3e 71 da 12 3f 2e a1 3f 3f
       1.0158187 0.4707861 0.57364565 0.74855316
0000e0 d5 a3 16 3f 07 9b 00 3f f6 1e 0e 3f c9 81 2d 3f
       0.5884374 0.5023655 0.5551599 0.6777616
0000f0 63 e7 5e 3f 21 db 13 3f 42 66 1d 3f 1e 78 63 3f
       0.8707182 0.5775624 0.6148416 0.8885516

layers.0.ln1.bias f4 [64]
000000 7b d9 17 3e 66 41 35 3e 10 c6 54 3e d6 67 90 bc
       0.14829056 0.17700729 0.2077868 -0.017627638
000010 b9 a3 9d 3e d4 c2 31 3d 4d 08 6d 3e af 06 f4 bc
       0.30788973 0.043398693 0.23147698 -0.029788343
000020 94 39 db bd 06 76 0a 3e 71 86 63 3c 9b a6 30 bc
       -0.107043415 0.13521585 0.013887034 -0.010781909
000030 a7 8e 82 3d 39 b4 b0 bd 3c ac 67 3e bb 07 ba bd
       0.06374865 -0.08628125 0.22624296 -0.09083506
000040 a3 70 e8 3d e1 65 26 3d b3 8c 20 be b3 4f 31 3b
       0.11349609 0.040624503 -0.15678672 0.002705556
000050 b9 0d 36 bc df f8 8d be 8f 12 64 3e 3e 81 22 be
       -0.01111167 -0.27728936 0.22272705 -0.15869614
000060 55 25 22 3d aa 6e ca be da 4b 6b bd 3b 3e 9c bd
       0.039586384 -0.39537555 -0.057445385 -0.07629057
000070 96 0f 61 3d d6 b2 e8 bd 8f b8 8b 3d a3 e5 4a be
       0.054946505 -0.11362235 0.06822311 -0.19814162
000080 0c 03 ad bc 36 9c a9 be 58 3d a7 3d 63 b0 4c be
       -0.021119617 -0.33126992 0.08165997 -0.19989161
000090 b6 4e a7 3c c9 e7 21 be b5 fe 0a 3d ec e0 f5 bd
       0.020423274 -0.15811075 0.033934314 -0.12005791
0000a0 0d b9 03 3e 74 32 7e be 12 25 8a 3e 02 8a b8 be
       0.1286356 -0.24823934 0.26981407 -0.36042792
0000b0 d5 73 9c 3d 28 89 7b bc fa 79 37 3e 2a a9 78 be
       0.07639281 -0.015352525 0.17917624 -0.24283281
0000c0 bf 9f 0f 3e 46 c8 c0 bd 8f 10 89 3e 0d aa e7 bd
       0.14025782 -0.09413199 0.26770446 -0.113117315
0000d0 ae 5b 04 3e 69 70 9e bd 2e 97 3c 3c 9d 76 1b be
       0.12925598 -0.07736284 0.011510653 -0.15181966
0000e0 0f 63 43 3d d5 44 18 be 74 39 66 3e 5e ad 91 bd
       0.04770189 -0.14870007 0.22482854 -0.07113145
0000f0 f3 bd 3f 3e fc 66 53 3d e9 36 08 3e 59 2f 42 be
       0.18724804 0.051611885 0.13302197 -0.18963374

layers.0.attn.Wq.weight f4 [32, 64]
000000 ad 36 67 bd 7b f0 fe bc 82 c4 94 3b d1 e5 ec 3d
       -0.056448627 -0.03112053 0.004540027 0.115672715
000010 4c 68 08 3e 6d e0 d5 bc 08 b1 5f 3e 01 99 63 be
       0.13321036 -0.026107991 0.21844876 -0.22226335
000020 c7 80 c0 bd 59 62 e9 bd 70 b4 58 3d 75 15 0c be
       -0.09399562 -0.113957115 0.052906454 -0.1368006
000030 72 0c b3 3d 94 ba 5c 3e 91 9e 4f 3e 33 44 84 3d
       0.08742608 0.21555549 0.20275332 0.064583205
000040 0c 92 c9 3d c4 07 fc 3d 37 f4 04 be d0 77 26 3e
       0.09842309 0.12306169 -0.12983786 0.16256642
000050 a3 63 af 3d 9a 99 ee 3d 95 27 b9 bb d3 f9 5e 3d
       0.08563926 0.11650391 -0.0056504705 0.05443747
000060 15 7e 4c bc ac b1 da bd 49 2d f9 bc bd 01 53 3d
       -0.012481232 -0.106784195 -0.030417101 0.05151533
000070 60 a3 d0 bd df 00 2b 3d 61 ea a3 3d 2b 3c 1a bd
       -0.10187411 0.041748878 0.080036886 -0.037655037
000080 aa 71 af bd 91 63 5a bd 76 44 7c bc b0 af f1 bb
       -0.085666016 -0.05331761 -0.015397182 -0.00737568
000090 02 c8 93 bd 9b 0a 12 bd 12 15 2e be 26 be 00 be
       -0.07215883 -0.035654645 -0.17000225 -0.12572536
0000a0 f1 6a 66 3d 33 1d 58 bd c3 e1 3e bc ee 96 af 3c
       0.05625433 -0.05276222 -0.0116505055 0.021434274
0000b0 c7 97 a0 bd 13 7b 5e be f3 4d 16 bd 40 3d a3 bd
       -0.07841449 -0.21726637 -0.036695432 -0.07970667
0000c0 60 4c 1e be 56 df d9 3c 65 a5 9e bd c1 23 82 3d
       -0.15458822 0.026595753 -0.0774639 0.06354476
0000d0 de 2f 7c bd 60 93 f5 bd 44 3e e4 3c 6d 1e b0 bd
       -0.061569087 -0.11991 0.027861722 -0.08599553
0000e0 a5 bf 82 3d 6b 75 b0 3c 59 ce 6c 3e 15 7a 49 bc
       0.063842095 0.021540364 0.2312559 -0.012297173
0000f0 e9 e7 ff bd bc 10 a6 bb f3 0d 3f 3d aa 6c 40 3c
       -0.12495405 -0.005067913 0.046644162 0.0117446575
000100 c5 27 2d 3e 95 ef 9b be d4 ab 7e 3e de e3 10 3e
       0.16909702 -0.30456224 0.24870235 0.14149424
000110 00 6f 5f 3e 23 e9 56 3c 44 47 92 bd d8 71 aa bd
       0.21819687 0.013117108 -0.07142499 -0.08322495
000120 cb a6 15 3f 49 9f 47 3e 4d 09 35 be 4f ae 66 3e
       0.5845763 0.19494356 -0.17679329 0.22527431
000130 ca 04 c9 bd 31 ba e3 3d fa e1 0e 3e cf 03 21 3c
       -0.098153666 0.111194976 0.1395339 0.009827568
000140 a6 13 a6 3c 9f ff 64 3e 9c 3e 37 3d 6f 56 b9 3d
       0.020273041 0.22363137 0.044737443 0.09049689
000150 70 1d 0f be a5 ca 15 be 61 df 0a 3e 04 53 41 be
       -0.13976073 -0.14628084 0.13561775 -0.18879324
000160 82 2a 99 be 2d 9e 67 bd 61 8c 9e be 0f 1d b2 bd
       -0.29915243 -0.056547333 -0.30966476 -0.08696949
000170 66 e0 1d be ca c5 af bd 5d fe 45 be c2 f7 d7 bd
       -0.15417632 -0.08582647 -0.19335313 -0.10545303
000180 a3 32 dd bd 01 34 7f be 35 29 9b bd 4a 0a 89 be
       -0.10800674 -0.24922182 -0.07576219 -0.26765662
000190 1c d4 e9 bd 60 1e 50 be 7e 82 44 be cd 0b 05 be
       -0.1141741 -0.20324087 -0.19190404 -0.12992783
0001a0 11 10 29 bc 59 37 39 be 5a 25 70 3e c1 5c 7b be
       -0.010318772 -0.1808752 0.23451748 -0.24547102
0001b0 81 cf d5 3d ea cc 0a be 0d 79 0e be b8 85 4a 3d
       0.10439969 -0.13554731 -0.13913365 0.04944393
0001c0 df fa 30 3e e8 84 81 3e 0e 42 fa 3d d6 35 f7 bd
       0.172832 0.25296712 0.1221963 -0.12070815
0001d0 2f f5 8e 3e 88 07 34 bd 8c c9 de 3d a7 70 a6 bc
       0.27921435 -0.043952495 0.10878286 -0.020317389
0001e0 6f ee bb 3c e5 c3 91 3d c3 35 98 3d f3 ab b9 bd
       0.022940842 0.07117442 0.07432129 -0.09066
0001f0 93 81 2b be c1 49 6d bc 37 e1 2e be ed bc 03 be
       -0.16748647 -0.014482916 -0.170781 -0.12865038
000200 4a 43 eb bc b5 b4 80 be eb 42 05 3e d0 81 59 3e
       -0.02871861 -0.2513787 0.13013808 0.21240926
000210 57 94 a9 be 7d 4d aa bd f5 3c aa 3b 88 f7 90 3d
       -0.33120987 -0.08315561 0.005195255 0.07078463
000220 bd 3b 95 3d 1d 0d 1f 3e a5 4a 0a 3e 7b be f9 bd
       0.07286785 0.15532346 0.13505037 -0.121945344
000230 38 50 9f bb e1 af 87 3c 6f 72 19 be fc 95 03 be
       -0.0048618577 0.016563358 -0.14985059 -0.12850183
000240 6a 0c 06 3d 67 72 54 3e 75 b2 4b be 67 54 04 be
       0.032726683 0.20746766 -0.19892295 -0.12922822
000250 db 9a 02 be b7 18 0a bc 33 22 26 3e 02 24 51 bd
       -0.12754385 -0.008428744 0.16223983 -0.05105973
000260 40 c5 83 bd 97 ee 79 3d 05 1e 66 3d 81 9b 42 3e
       -0.06434107 0.061018553 0.056180973 0.19004633
000270 48 62 9c bd ea 5a 51 bd 79 88 c9 3d 5c 3c 08 bc
       -0.07635933 -0.051112093 0.09840483 -0.008315172
000280 25 03 cc 3d 37 c3 3e 3d 3e f6 bd bd 6e 33 e6 3c
       0.09961537 0.04657289 -0.092754826 0.028100695
000290 7d a7 37 bd a8 84 df 3d c4 6b 94 3d 10 5e 11 bd
       -0.044837464 0.10913974 0.07247117 -0.035490096
0002a0 6d 6e 76 ba 9f b3 b5 bd 40 b2 8f 3c 35 b1 38 bc
       -0.000940061 -0.08872151 0.01754105 -0.011272718
0002b0 76 26 c3 bc 77 56 84 bd 46 1a bb bb 9e 13 53 bd
       -0.02382205 -0.06461804 -0.005709919 -0.05153238
0002c0 99 b6 85 3b 9d 18 8e 3e 0a 81 6e bd c8 84 5c 3e
       0.004080605 0.27753153 -0.05822853 0.21535027
0002d0 9b d6 49 3d 48 ca ff 3d c4 ab b0 3c e0 03 93 3c
       0.04927693 0.12489754 0.02156628 0.017946184
0002e0 9d 7b f4 3c 56 3f 9d 3d 9c 58 99 3d a8 c3 c1 bd
       0.0298441 0.07678096 0.07487604 -0.094611466
0002f0 f5 63 99 3c 21 50 5c 3e 91 e1 30 be 78 88 29 3e
       0.018724421 0.21514942 -0.17273547 0.16555965
000300 ea 90 99 bd f1 5e c7 bd 3b fc cf bc 47 04 07 be
       -0.07498343 -0.097349055 -0.025388828 -0.13185225
000310 89 aa 4b be 1f cc 78 be 8f ba 76 bd 6a 9c 66 be
       -0.19889273 -0.24296616 -0.06023651 -0.22520605
000320 7b 7b 9d 3d a1 e2 d5 bd f3 ad a3 be ac 5a cb be
       0.07689568 -0.10443617 -0.3196865 -0.39717615
000330 e0 68 9e 3e d3 93 12 bf 6c 97 08 be c5 55 94 bd
       0.30939388 -0.5725681 -0.13339013 -0.07242922
000340 a6 01 4a 3d a4 46 f4 bc d6 9e 43 3e 1a f3 5e 3c
       0.04931798 -0.02981884 0.1910356 0.013607765
000350 c2 c2 eb ba 72 4d 9d 3e 42 e5 fc bd 67 d4 fe 3c
       -0.001798712 0.3072315 -0.12348415 0.03110714
000360 c9 39 41 3e 12 76 18 3e b4 88 5e 3d 42 13 0a 3e
       0.188697 0.1488879 0.05432959 0.13483909
000370 1a 0f b4 3d d6 ed 2f 3d 21 ff 89 3d 29 3d 1d 3e
       0.08791943 0.042951427 0.06738115 0.15355362
000380 53 f1 43 bc 98 b6 a6 3e 49 1d 45 bc 5c d9 25 3e
       -0.011959392 0.32561183 -0.012030908 0.16196197
000390 71 2e fb 3a 29 25 d5 3e ab 9d 52 3c 6e 9c b2 bc
       0.0019163621 0.41629913 0.012854974 -0.021803107
0003a0 38 3c de 3d f0 47 b3 3d 2a fc 0f be 7b ee 6c 3e
       0.108513296 0.08753955 -0.14061037 0.23137848
0003b0 f9 fa 92 bd 28 3c 94 3b f9 d1 37 be 82 9e d5 3d
       -0.071767755 0.0045237727 -0.17951192 0.104306236
0003c0 04 38 04 be 18 b0 86 3e 2c 49 7e be 48 a1 c0 3e
       -0.12911993 0.26306224 -0.248326 0.37623048
0003d0 33 57 17 be 2e 16 6f 3d 4c a7 30 be e1 1e 12 3e
       -0.14779358 0.05837076 -0.17251319 0.14269592
0003e0 65 66 08 bd 55 ff 6c 3e 91 98 b4 be 19 7f d1 bd
       -0.033300776 0.23144276 -0.3527265 -0.1022932
0003f0 83 a2 7b 3e 92 20 c2 3c 6e 23 30 3d 7c 64 96 3e
       0.24573712 0.023697171 0.04300254 0.29373538

layers.0.attn.Wk.weight f4 [32, 64]
000000 14 d0 c4 bc 25 eb 44 bd f4 f8 fc 3d 65 5c 39 3d
       -0.024025 -0.048075814 0.123521715 0.04525413
000010 13 f4 e7 3d c8 4c 3b bc 69 ba 39 3e 4f 52 ba bd
       0.1132585 -0.01143188 0.18137516 -0.0909773
000020 4d a5 d7 bd 26 94 94 3c a0 9c 89 bd cd ce 36 be
       -0.105295755 0.018137049 -0.06719327 -0.17852326
000030 2c ea 88 3e ea 38 15 bd 34 64 5b 3e 30 a9 77 3e
       0.2674116 -0.03643123 0.21424943 0.24185634
000040 d5 bb d4 bd 0e bd 8b 3e 06 9f 96 bd 34 d8 cb 3d
       -0.103873886 0.27292675 -0.0735455 0.09953347
000050 37 de 40 be b6 8d 9b 3d cd fc dd bd 41 cb 82 bd
       -0.18834768 0.075953886 -0.108392335 -0.06386424
000060 af d1 87 bd 54 5e 6e 3e 56 a8 c4 bd 6f 85 84 3d
       -0.06631791 0.23278171 -0.0960242 0.06470763
000070 43 a6 9b bd da 64 df bb ea 46 ec bd 6d 46 90 3e
       -0.07600071 -0.0068174424 -0.11536963 0.2817873
000080 11 a6 ed 3d ae 25 e0 bd 52 88 24 3d e0 66 b1 3c
       0.1160394 -0.10944687 0.040169068 0.0216555
000090 b1 99 dd 3d 72 00 2c 3c a4 3d 7c 3d 4e 80 97 bd
       0.1082033 0.010498153 0.061582223 -0.07397519
0000a0 79 a7 b9 bd f1 8c aa bd 79 93 59 be 4b 26 74 3e
       -0.09065146 -0.08327664 -0.21247663 0.23842733
0000b0 4f c0 6b bd 23 83 8d 3d ef ea 70 3c 98 76 d8 3c
       -0.057556447 0.06909778 0.01470445 0.026423737
0000c0 93 2b 48 3d 8b 3f f4 bc 89 a9 0c be 59 8b ea bd
       0.04886968 -0.029815456 -0.13736548 -0.1145236
0000d0 a9 2c 46 be 72 60 fb bd 61 99 ca bd 64 4d 92 3d
       -0.19352974 -0.12274255 -0.09892536 0.07143667
0000e0 4c c7 17 be 04 aa af 3b 5a d0 23 bd 0b 8c a5 3d
       -0.1482212 0.0053608436 -0.03999362 0.08083352
0000f0 ba 56 d2 bd 2a 3c 99 bd 62 f5 b8 3d ca b9 f9 3c
       -0.10270448 -0.074821785 0.09031178 0.030484099
000100 90 50 4e 3e 26 df 4b bd e1 f3 96 3d 12 9f d5 3d
       0.2014792 -0.049773358 0.07370735 0.10430731
000110 f6 e2 0b 3e a0 a2 4c 3d 31 57 9c 3d e8 bd 68 be
       0.13660797 0.04995978 0.07633818 -0.22728693
000120 79 60 25 3e 3c 42 7b 3e 62 34 37 be aa d6 4d 3c
       0.16150083 0.24536985 -0.17891076 0.012563387
000130 78 09 64 3e 94 cf 8b 3d e7 39 88 3d fb c1 5f 3e
       0.22269237 0.06826702 0.06651669 0.21851341
000140 c3 78 a7 bd 5e 5a 97 3e b0 59 99 be 94 d1 9a 3d
       -0.0817733 0.29561132 -0.2995124 0.07559505
000150 53 b3 ef bd 9a 06 88 3e a2 95 55 be 52 c0 75 3d
       -0.11704125 0.26567537 -0.20857862 0.059997864
000160 53 2f ef bd e7 de e0 3c de 84 63 be ba f0 1d 3e
       -0.11678948 0.027450038 -0.22218654 0.15423861
000170 80 3b de bd 00 fe c1 bd 92 16 24 be d4 d6 00 bd
       -0.108511925 -0.09472275 -0.16024235 -0.031454876
000180 b8 f5 16 be 60 71 7a bd 35 46 bf bc a9 3b db 3d
       -0.14742172 -0.06114328 -0.023348907 0.10704739
000190 e4 98 02 3e be 57 e1 bc e2 21 b6 3d 2a 80 e3 3d
       0.12753636 -0.027507659 0.088931814 0.1110843
0001a0 c5 78 2d be 43 77 8c bc a3 63 23 be 77 8b 58 3d
       -0.16940601 -0.017146712 -0.15955977 0.05286738
0001b0 fc a3 94 bd 0b 26 99 bd a5 85 0c 3c 28 ea 81 bd
       -0.0725784 -0.07477959 0.008576785 -0.0634349
0001c0 df 55 42 be 78 63 ac bd e6 af 83 3d fe c6 c9 3d
       -0.1897807 -0.0841741 0.06430034 0.09852408
0001d0 f0 c7 d5 bc c9 9d 15 3c 9e e9 51 bd 7c ca 70 bd
       -0.026096314 0.009131857 -0.051248185 -0.058786854
0001e0 5f 9c ab 3d 17 62 99 3d 12 51 65 3d 03 d6 10 3d
       0.08379435 0.07489412 0.055985518 0.035360347
0001f0 dc b8 84 be 52 1f 03 bd fd e7 b8 bd df 36 a1 bc
       -0.25922287 -0.03201229 -0.09028623 -0.019679485
000200 d4 9a e3 3d 59 e7 74 be c0 c3 02 3e d2 d3 64 be
       0.111135155 -0.23916377 0.12769985 -0.22346428
000210 3c f6 ad 3d af 15 1d be 7d b3 0f 3e 66 b0 3f 3e
       0.08494231 -0.15340303 0.14033313 0.18719634
000220 1b 4d 31 3d 6a f9 cf bd 43 58 ce 3d ee c8 fa bc
       0.043286424 -0.10154994 0.10075428 -0.030613389
000230 80 17 8b bd b1 92 2b 3d f6 aa 11 bd 2b bb 64 bd
       -0.06791592 0.041887943 -0.03556343 -0.05584256
000240 3a 7a 56 3e 1b a5 4f bd ee db 3a bb c7 47 54 bd
       0.20945063 -0.050694566 -0.0028512436 -0.051826265
000250 86 0d c8 3d 37 9b c4 bd 57 f7 50 bd e2 8e 15 3b
       0.097682044 -0.095999174 -0.05101713 0.002282076
000260 86 98 9c 3d 87 52 52 be a2 d8 80 3e b3 7a 91 bd
       0.07646279 -0.20539294 0.25165278 -0.07103481
000270 2e c7 31 3c 41 39 9f 3d d0 04 e4 3d 91 7c 29 be
       0.010850711 0.07774592 0.111337304 -0.16551425
000280 bf ca 1b 3e a2 ae 0e be cd 2c bd 3d f7 56 53 3e
       0.1521406 -0.13933805 0.09237061 0.20638643
000290 fd 32 ed 3d 9e 65 b1 3d 63 c8 a9 bd ad 63 28 3d
       0.11581991 0.0866196 -0.08290174 0.041110683
0002a0 39 40 a6 3d 20 27 78 bd fc 00 9f 3d fa 59 77 bc
       0.08117718 -0.060584188 0.0776386 -0.015097136
0002b0 cb bf 8e 3c 91 2d 4d 3d 73 8b 33 3d 4f bd 88 be
       0.017425438 0.050092284 0.04383416 -0.2670693
0002c0 74 a2 68 bc 44 23 c9 bd 1d df c4 bc f4 6d 08 3e
       -0.014198888 -0.098211795 -0.02403217 0.13323194
0002d0 64 e4 b1 3d 43 31 26 bd 84 ec 04 3e f3 fa 6c bc
       0.0868614 -0.040574323 0.12980849 -0.014464128
0002e0 be f2 0f bd 41 9e a2 3d 66 b5 8a 3d 71 c1 c3 3d
       -0.035143606 0.07940341 0.0677288 0.095583804
0002f0 35 d2 f1 3d 9b 81 a8 39 11 3d a6 bd 2a a8 b9 bc
       0.11807672 0.0003214002 -0.08117116 -0.022663195
000300 32 53 98 3d 9d 51 65 3d 3b 57 df 3d af 16 53 3d
       0.07437743 0.055986036 0.1090531 0.051535305
000310 8e df 9c bc 6c 01 14 be 6c 74 21 bd b6 2e ba bd
       -0.019149568 -0.14453667 -0.03941767 -0.09090941
000320 63 a1 1d be bd af 07 bd 68 55 9e 3d 17 07 42 bd
       -0.15393595 -0.03312658 0.07731134 -0.047370043
000330 09 f8 ac be a9 7a 28 be 19 d4 cd bd ad ab e9 be
       -0.33782986 -0.16453041 -0.1005022 -0.4563879
000340 5c e4 3b 3e f4 b5 28 be 23 6c 44 3e 53 bf 72 be
       0.18348831 -0.1647566 0.19181876 -0.23705797
000350 92 dd d0 3e 7e 62 9b be 3f 1e 91 3e 1b 4f 9c bc
       0.40794045 -0.3034858 0.28343388 -0.01908069
000360 e6 18 c7 3d 84 42 32 bd f9 ae 1c 3e 92 df 33 bb
       0.09721546 -0.043520465 0.15301122 -0.002744649
000370 b4 e7 27 3d 55 b4 d7 3d 9e 01 07 3e 8a 04 d4 3c
       0.040992454 0.105324425 0.1318421 0.02588107
000380 52 49 4c 3e 07 62 3a 3e 7f 40 ed bd 56 72 12 3d
       0.19949844 0.18201457 -0.11584567 0.03575357
000390 6e a9 b4 bc 6c ca 88 bd b5 37 be bd 60 82 7a bd
       -0.022053447 -0.06679234 -0.09287969 -0.06115949
0003a0 53 17 79 3d ac ec 05 be b8 43 33 3e 00 c9 b2 bd
       0.06081326 -0.13078564 0.17506301 -0.08729744
0003b0 d6 a1 b7 3d 82 b4 ea 3d dd 0c 89 3c 97 12 e5 3c
       0.08966415 0.114602104 0.016729767 0.027962966
0003c0 6c e4 2c 3e dd 00 4e 3d cc 8b 28 3e 39 4b c9 bc
       0.16884011 0.050293792 0.16459578 -0.024572002
0003d0 5a 6e 1d 3d 9f 5b b5 bc aa 6a 0f 3d 82 fd 00 3e
       0.038435318 -0.022138415 0.035013832 0.12596706
0003e0 07 ef d2 3d 17 ec d6 bc 8a 2d 22 3d 9d 30 d3 3d
       0.10299497 -0.026235623 0.03959421 0.103120066
0003f0 fa da 28 3e 4a 19 5c bc 3a 94 60 3d 9a a8 1c bc
       0.16489783 -0.013433764 0.05482886 -0.009561682

layers.0.attn.Wv.weight f4 [32, 64]
000000 75 50 09 bd 17 8b 0d 3d 23 72 07 be 8f 4c cc 3c
       -0.033523995 0.034556475 -0.13227133 0.02493885
000010 4e a3 48 bd 26 a8 ef 3d 94 8c 46 3e 6f 22 af bd
       -0.048983864 0.11701994 0.19389564 -0.085514896
000020 71 51 c8 3d 96 e5 96 bd 2c d6 84 bd 8c 24 b0 3c
       0.09781159 -0.07368009 -0.064861625 0.021501802
000030 dc 00 ce bc 5e 81 af 3d f3 da ea 3b 26 65 a6 3d
       -0.025146894 0.08569597 0.007167214 0.08124761
000040 da 4f 15 3d 4e 42 56 be 5a b9 73 3d dd 13 0e bd
       0.036453106 -0.2092373 0.059502937 -0.03468691
000050 a4 90 b3 bc cd 8f 8b bd 5b a8 a7 bc 19 a4 2c be
       -0.021919556 -0.06814537 -0.02046602 -0.16859473
000060 30 7a c9 bd 6e 35 e6 bd 34 3b 99 3d 83 db 15 3c
       -0.098377585 -0.1124066 0.07481995 0.009146574
000070 40 8d c2 3d aa 3b aa bc 64 02 51 be 86 78 eb 3d
       0.094995975 -0.020780403 -0.20411068 0.114975974
000080 89 cd 9a 3e ee d6 46 3d cc 0b 56 be ac 00 c2 bd
       0.30234936 0.048544817 -0.20902938 -0.094727844
000090 75 6c 06 3c a1 59 40 be 7d cf b9 3d f1 22 50 be
       0.008204569 -0.1878419 0.090727784 -0.20325829
0000a0 a5 13 64 be 95 ef b9 bd f0 4e 12 3e cb 46 e8 bd
       -0.22273119 -0.090789 0.14287925 -0.11341628
0000b0 1a 72 06 3e 0f a1 a0 bc 3d 68 7f 3b 6e c0 3e be
       0.13129464 -0.019608049 0.0038972043 -0.18628094
0000c0 63 40 39 bd b9 48 2d 3e af aa 44 3e e1 32 8a 3c
       -0.04522742 0.16922273 0.19205736 0.016869964
0000d0 fb 7f 8d 3d 5e ef 51 3e 50 26 dd 3b 3b 1c 35 3d
       0.06909176 0.20501468 0.006748952 0.044216376
0000e0 d1 7b fc bd 86 79 4c 3d 40 03 35 3c 6b 4a bd 3d
       -0.123283036 0.04992058 0.011048138 0.0924271
0000f0 51 ed 13 be 74 ee 59 be ba a0 21 3d 7c c0 70 bd
       -0.14445998 -0.21282369 0.03945992 -0.058777317
000100 45 81 0a 3e 03 f9 37 be 8a 6b 8b 3e 99 e3 12 bc
       0.13525875 -0.17966084 0.27230483 -0.008965396
000110 40 9b 64 bd 51 66 3e 3e 48 6c a5 3d ff 06 b8 bd
       -0.05581212 0.18593718 0.08077294 -0.089857094
000120 41 f6 f9 3c a2 8f 18 3c 43 6f 8a 3e be 6b 65 3d
       0.03051293 0.0093115885 0.2703801 0.056010954
000130 b8 25 82 3d 56 fa 16 bb 60 17 b2 3c 6d e1 43 3d
       0.063548505 -0.0023037395 0.021739662 0.047822405
000140 20 ec 71 3e 33 18 0a 3e e1 eb f2 3d 95 53 38 3d
       0.23625231 0.13485794 0.118613966 0.045001585
000150 2e 2f be 39 6c a6 8d be ff 95 ff 3d 66 1e 5a bd
       0.00036274776 -0.27666032 0.12479781 -0.053251646
000160 73 ee 86 39 21 6e 01 be a9 68 87 3e 9e fc 1d be
       0.0002573613 -0.12639667 0.26447037 -0.15428397
000170 27 e2 88 be 60 8b 31 3e d3 57 fb 3d 25 a6 1e 3e
       -0.2673504 0.17338324 0.122726105 0.15493067
000180 03 41 d8 bd 5b 6c 10 be f6 17 dd bc fd 3e 20 be
       -0.10559275 -0.14103834 -0.026988965 -0.15649028
000190 7b a2 04 be 5d 3c 57 bc 16 ed c0 bd 6e ea 76 3e
       -0.12952606 -0.01313695 -0.094202206 0.24112865
0001a0 a7 e6 1c bc 42 aa 29 3e 04 f1 39 be d4 99 13 be
       -0.009576476 0.16568854 -0.18158346 -0.1441415
0001b0 95 8a b4 3b d3 fa eb 3d cf ba 24 bd 9d 43 b0 3d
       0.0055096843 0.1152245 -0.040217217 0.08606646
0001c0 d7 89 25 bd ea 8e 43 bd d4 29 32 bd 87 b6 0f bd
       -0.040414657 -0.047743715 -0.04349692 -0.03508618
0001d0 88 20 ce bc 51 a6 17 bd b4 e4 13 bd f4 6c 8c bd
       -0.025161996 -0.037023846 -0.03610678 -0.06856719
0001e0 af 31 46 3d d0 ec 68 bc 14 7b df 3c 34 a5 4d 3e
       0.048387226 -0.014216617 0.027280368 0.20082551
0001f0 be 48 74 3d 21 d3 49 3d d3 42 f3 3d 9b 0d 56 be
       0.059639685 0.049273614 0.1187798 -0.20903628
000200 26 a4 6c 3e c3 6d b2 bd 41 3b 98 3e 88 a3 7f bd
       0.23109493 -0.08712342 0.29732707 -0.062411815
000210 ff 6b d4 3d 1d 85 1e be 5c d1 a5 3d b1 f3 4e bd
       0.10372161 -0.15480466 0.08096573 -0.05052537
000220 64 bc a8 3d 30 6b 5b be 5e 00 8b 3c 9a c9 f2 bd
       0.08239058 -0.21427608 0.016967949 -0.11854859
000230 57 fb 5b be a8 3c 7d 3d 03 ed c8 3d 30 03 07 3e
       -0.21482597 0.061825424 0.098108314 0.1318481
000240 9f fc 8a 3c 8b 6c 68 be f9 9f 3d 3e c8 82 21 3e
       0.016966162 -0.22697656 0.18518056 0.15772545
000250 09 f2 67 3e e0 15 c8 3d 2b 42 1a be 02 2d 52 3d
       0.22650923 0.09769797 -0.15064304 0.051312454
000260 19 ee 08 3e f8 be ed bd 2a 94 48 3c fb 9f 42 bd
       0.13372077 -0.1160869 0.012242356 -0.04751585
000270 3a c4 3a bd ff b6 cc bd 9b cc 02 3d 64 78 f5 3d
       -0.045597292 -0.09995841 0.03193341 0.11985853
000280 f1 41 07 be 7b 33 3d be 0e c1 02 3a 33 8f 28 bb
       -0.13208748 -0.1847667 0.0004987874 -0.002572012
000290 49 74 b8 3c 92 8a 94 bd 8a 00 ba 3d 1c 7b 21 be
       0.022516387 -0.07252993 0.09082134 -0.15769619
0002a0 c4 0a cd bd 4d e5 8e bd 11 68 3b 3e c5 ca e3 bd
       -0.10011819 -0.069773294 0.18301417 -0.111226596
0002b0 34 73 36 bd 27 e5 ce bc 16 57 f4 bd ee d1 88 3d
       -0.04454346 -0.025255753 -0.11930673 0.06680666
0002c0 17 32 14 be d0 4c 69 3e a7 f4 ac bd 0e 42 64 3e
       -0.14472233 0.22783208 -0.08445101 0.22290823
0002d0 86 d4 a5 bc 83 d7 4d be 43 2a 4a bb 7d c3 3e be
       -0.02024294 -0.20101742 -0.0030847944 -0.1862926
0002e0 10 cb 90 3c 2c 4b eb bd cd 4b 10 3e cc 9e 05 3e
       0.017674953 -0.11488947 0.14091416 0.13048857
0002f0 da 96 8c 3d 90 eb 9c 3d 6b 6a ab 3d 10 a3 90 bc
       0.0686471 0.076621175 0.08369907 -0.01765588
000300 e3 28 d7 3d bc c8 a1 bd ca 21 58 3e 71 24 9e bd
       0.105058454 -0.07899615 0.2110664 -0.077217944
000310 03 1b b9 3d e0 46 f5 bc 7a 88 70 3d 16 29 51 3d
       0.09038355 -0.029941022 0.058723904 0.051064573
000320 d6 23 36 3e 20 fa 53 bd 32 f9 8f 3e 4c bb 34 be
       0.17787108 -0.05175221 0.28119808 -0.17649573
000330 bf 2d 3f 3d 7c 8c 14 be c7 d0 92 bd fe 14 fd bc
       0.046674486 -0.14506716 -0.07168727 -0.030893799
000340 11 66 98 3c c6 0d a4 be 79 f9 5a bd a4 d0 b1 bc
       0.018603357 -0.32041758 -0.053460572 -0.021705933
000350 f0 81 4a 3e e7 6e 6c bb b1 8f 2d be 5f 6f b9 bd
       0.1977613 -0.0036076845 -0.16949345 -0.090544455
000360 ce ee 88 3e fe b2 5c be 66 97 60 3d 7f 7b 0b 3e
       0.26744694 -0.21552655 0.054831885 0.13621329
000370 1c 10 ba bc a6 b0 75 be 04 85 aa bd 89 b8 b2 bd
       -0.02271276 -0.23993167 -0.08326152 -0.087266035
000380 46 1a 4d be fb 10 1a be 8e 69 33 3e f0 88 4d 3d
       -0.20029554 -0.1504554 0.17520735 0.050179422
000390 57 fc 59 3c ca b6 24 3e af 76 b2 3d 06 ad 74 3e
       0.013304791 0.16085353 0.08714043 0.23894128
0003a0 25 11 ed 3d 46 c2 89 bc 9a 62 97 3d ee 30 b7 3c
       0.11575536 -0.01681627 0.07391854 0.022362199
0003b0 f0 9c 00 3e e8 97 46 be eb 6a 2a bd 57 39 18 3d
       0.12559867 -0.19393885 -0.04160587 0.03716406
0003c0 b1 ed a7 3c 5e 1a 66 be 4e f8 06 3d db f9 a6 bd
       0.020499082 -0.22470996 0.032951646 -0.08153125
0003d0 27 3c 1b bd da e4 2f be ab 93 9b bd 77 4a a2 3d
       -0.037899163 -0.17177144 -0.07596525 0.07924359
0003e0 01 42 2c bd 70 c0 55 bc 03 b4 05 bc 74 2d fb ba
       -0.042055134 -0.013046369 -0.008160594 -0.0019163326
0003f0 b5 b7 22 be 5b 53 44 bb 3f 93 d3 bd cd cd 0e 3e
       -0.15890391 -0.002995691 -0.10330819 0.13945694

layers.0.attn.Wo.weight f4 [64, 32]
000000 cd 87 af bd 7d 12 1e 3e 7d 93 5b 3e a7 c1 d7 3d
       -0.08570824 0.1543674 0.21442981 0.10534983
000010 f2 89 4f 3d c2 ad 6c bd 42 db 89 3e dd 0b 4c be
       0.050668664 -0.057782896 0.26925093 -0.199264
000020 79 3f 13 be 64 01 80 be 2f e0 0c be 93 c5 0a be
       -0.14379682 -0.2500106 -0.13757394 -0.13551931
000030 d7 db 3c 3e aa 14 a2 3b fe ca 87 be 52 5d 1b 3c
       0.18443237 0.004946311 -0.26522058 0.0094826985
000040 c9 e2 d9 3b 5d 10 be bd 2a d4 2e bd 88 98 b3 bd
       0.0066493494 -0.09280465 -0.042682804 -0.087693274
000050 b2 c1 64 3d 15 dd 4c bd 88 be 0e 3e 89 eb 14 3e
       0.055848785 -0.050015528 0.1393987 0.14542975
000060 12 46 0d be f2 be 39 3e dc 46 4f 3d 2c 4b 77 3d
       -0.13796261 0.18139246 0.050604686 0.060374424
000070 4d 89 69 be 09 00 fd bd 29 d4 58 be 00 44 b9 bd
       -0.22806282 -0.12353522 -0.21174683 -0.09046173
000080 b7 df 78 be a2 d6 2c be ad c3 d6 bd df 22 29 be
       -0.2430409 -0.16878751 -0.10486541 -0.16517209
000090 b7 f7 13 3c e4 17 91 3e f6 64 9b 3d 4f 3b 5d bd
       0.009031228 0.2833854 0.07587616 -0.05401164
0000a0 d5 eb 45 be 3f ef 90 3d a9 5f 0c 3e cb e4 79 bd
       -0.19328244 0.070768826 0.13708366 -0.06100921
0000b0 07 b6 df bd 86 c9 b6 bc 62 4b 05 3e 3c 2a f0 3c
       -0.10923391 -0.02231289 0.13017038 0.029317014
0000c0 db 13 98 be f1 ce 40 bd cf af 98 be 74 7e d2 3c
       -0.2970265 -0.047072355 -0.2982163 0.025695063
0000d0 84 64 35 3d d6 4c c0 bd 8c 19 15 3e 49 5c 48 3d
       0.044285312 -0.09389655 0.14560527 0.048916135
0000e0 29 03 02 be 89 c1 2c be 75 06 03 3e 99 60 c1 3d
       -0.12696518 -0.16870703 0.12795432 0.09442253
0000f0 bf 03 41 3e c3 cb fe bc fa 47 89 3d 87 8d 5a 3e
       0.18849085 -0.03110302 0.067031816 0.21343051
000100 dd 01 22 3e 26 20 23 be ce 41 61 bd ad 05 75 bd
       0.15821023 -0.15930232 -0.054994397 -0.059819866
000110 5f 8a bd bd c9 87 0e be db 0d 3f bd 43 d0 89 bd
       -0.09254908 -0.13918985 -0.046644073 -0.06729176
000120 db 13 46 3d 99 38 46 bd 10 fb 0b 3d cc 7a b7 bd
       0.04835878 -0.04839382 0.03417498 -0.089589685
000130 1a de 4e be d6 92 70 bd 3b 36 9d 3d bd da af bd
       -0.20201913 -0.058733784 0.07676359 -0.08586643
000140 09 12 8c bd fa 7e ba 3d d7 29 23 3d 2a 24 e8 bc
       -0.068393774 0.0910625 0.039834823 -0.028337557
000150 04 76 c3 3d e6 aa f0 3d 80 d7 21 be 5b 18 cc 3d
       0.09543994 0.11751346 -0.15804863 0.09965583
000160 af 1e 60 3e 15 73 61 3d 54 22 26 be 93 ac 04 3d
       0.21886705 0.05504139 -0.16224033 0.032391142
000170 c8 88 fa 3b 7f 07 87 3d ba da 22 3e d7 ba 03 bd
       0.0076457 0.06593227 0.1590375 -0.032160606
000180 82 27 32 bd 03 25 73 be 77 3c 41 3e c5 ec af bd
       -0.04349471 -0.23744588 0.18870722 -0.08590082
000190 dc 33 5d 3d fd f3 a1 bd bf ec 6f 3d 5a 6f 1f bc
       0.054004535 -0.07907865 0.058575388 -0.009731138
0001a0 79 df 43 bd e6 50 7c be 1c 12 56 3e 3a 92 22 bd
       -0.047820542 -0.24640235 0.20905346 -0.039690234
0001b0 84 57 98 be b8 c2 b6 bc 87 c1 5d 3e c1 8e 82 be
       -0.2975427 -0.022309646 0.21655856 -0.25499538
0001c0 c3 68 89 3e 1a 7b 9f be 0b 54 ba be e4 ed e4 bc
       0.2683774 -0.31148607 -0.36392245 -0.027945466
0001d0 0a 96 10 be 6a fa f8 bd 39 63 fa 3d af c3 08 bb
       -0.14119735 -0.12157138 0.122259565 -0.002086859
0001e0 95 a4 93 3b c5 87 a7 bd ac 00 a1 3d 81 65 c9 bd
       0.0045057037 -0.08180193 0.07861456 -0.098338135
0001f0 d4 e7 e3 bd 0f 2c da 3c e5 1d ed 3d 95 fe 06 be
       -0.11128202 0.026632337 0.115779676 -0.13183053
000200 70 ed 8e be ef 40 2e 3e 0b fa 40 3e 53 ae 2a 3e
       -0.27915525 0.17016958 0.18845384 0.16668062
000210 c7 49 b2 3d 20 f5 35 be 22 6b 5d 3d 7b 6a b9 3d
       0.08705478 -0.17769289 0.054057248 0.09053513
000220 2b a7 eb bc f8 19 c0 3d 14 40 85 bd 65 e7 6a bd
       -0.028766235 0.09379953 -0.065063626 -0.05734958
000230 6e 0e 1f 3e f9 98 2a 3d ab 61 34 3d 48 ec 0f 3a
       0.15532848 0.041649792 0.044038456 0.0005490226
000240 ec 34 a3 be 71 8a fd bd 58 5d 55 3c 96 88 8e 3c
       -0.31876314 -0.12379921 0.013022743 0.017399114
000250 4c 62 eb bd 77 77 68 3e ed b7 45 3e b2 4f 56 bd
       -0.11493358 0.22701822 0.19308443 -0.052322097
000260 64 3b 23 3e de 33 66 bd 2b 2a 22 be 46 d1 f5 bd
       0.15940624 -0.05620181 -0.15836398 -0.12002806
000270 1b 25 ce 3d 5d b9 8e bc 3e f7 00 be 7c 92 48 3e
       0.10065671 -0.017422372 -0.12594315 0.1958713
000280 eb a9 fd 3d 05 c8 27 be 3e 3c ea 3d a4 84 e1 3c
       0.12385925 -0.16384895 0.114372715 0.027529068
000290 e4 27 d5 bd 4d 7e cf bd de 93 7a bd 4a 9f fb bd
       -0.10407999 -0.10131512 -0.061176173 -0.12286241
0002a0 33 3d fd bd 59 35 2a 3c 78 9e bb 3e 9d 1b bc be
       -0.123651884 0.010388696 0.3664434 -0.36739817
0002b0 67 51 48 bc 7e 5e dc bc 02 73 96 3d ab 84 3e 3e
       -0.012226439 -0.026900526 0.07346155 0.18605296
0002c0 c4 c5 cc bd 36 99 7f be d7 b1 b4 be 27 66 b3 3d
       -0.09998658 -0.24960789 -0.3529193 0.087597184
0002d0 58 3c 65 be ed 79 a2 3d 6a d8 3f 3d 45 d2 0e 3d
       -0.223863 0.07933412 0.046837248 0.034868497
0002e0 6c 7e 8e bd a0 74 5b 3e a8 f4 14 3e 1c b2 e8 3c
       -0.06957707 0.21431208 0.14546454 0.028405242
0002f0 05 7d b2 3d 41 53 21 be 95 74 1e be 23 95 2c 3e
       0.08715252 -0.15754415 -0.1547416 0.16853766
000300 f3 6e 54 3e 83 77 8e 3e 34 2e 07 3e ed 6e 92 3d
       0.20745449 0.27825555 0.13201219 0.07150064
000310 43 6d e2 bd 91 ef 0a bd d7 76 41 3d 12 11 86 bc
       -0.11055996 -0.033919875 0.047232475 -0.016365562
000320 a6 c3 4c 3d 7a 90 68 be 7d d0 b3 bd 3e ea 90 3d
       0.049991272 -0.22711363 -0.0878 0.07075928
000330 f3 2d 38 be 6e ed ad 3c 66 92 03 3d ab bb a8 bd
       -0.17986278 0.02123138 0.03212204 -0.0823892
000340 b0 0f 63 bc 3f c5 92 bd a9 0f c7 3e 78 5c 65 3d
       -0.013858721 -0.07166528 0.38879135 0.05599639
000350 4e 17 47 bd 5c 2b 28 be 74 15 61 bd 1a 84 0d 3d
       -0.04860621 -0.1642279 -0.0549521 0.03454981
000360 e8 5f 3f be 23 1f e8 3c c1 9c a3 bd d9 68 d4 3d
       -0.18688929 0.02833516 -0.07988883 0.103715606
000370 dd 4d 7d be 88 4e 1b be 92 35 f0 3d 61 86 17 be
       -0.24736734 -0.15166676 0.11728968 -0.14797355
000380 46 6d bd be ab 0a bc be ff c8 9c be 27 08 17 bf
       -0.36997432 -0.3672689 -0.30622098 -0.58996814
000390 cd ce 3e 3e 70 07 36 3f 52 d1 0f 3e 70 09 0c 3f
       0.18633576 0.711051 0.14044693 0.547019
0003a0 04 fd e4 3d 8b 5c c0 3b ed f8 0d bf f1 ab 83 3e
       0.111810714 0.005870407 -0.55457956 0.25717118
0003b0 9f 2a 99 3b 16 38 13 be bf 92 00 3f 88 c6 55 bc
       0.0046742703 -0.14376864 0.50223917 -0.013047822
0003c0 be 63 9e be 4a cb f4 be b9 bb 95 3d ec 04 e4 be
       -0.30935472 -0.47811347 0.07311196 -0.44535005
0003d0 4a 3f b4 be 7f e9 20 be 34 10 2a bc 62 e6 6f be
       -0.35204536 -0.15714072 -0.01037984 -0.23427728
0003e0 79 9e d7 be 7d d2 cd be 3d 70 76 3e 82 69 78 bd
       -0.42113093 -0.40199652 0.24066253 -0.060647495
0003f0 64 4e d5 bd c9 b0 05 3f 4e 39 40 3c ad fc 96 3e
       -0.104153425 0.5222288 0.0117324125 0.2948965
