app/text_gen_transformer/weights/model.pt (torch, 286854 bytes, 29 tensors)

mask f4 [32, 32]
000000 00 00 80 3f 00 00 00 00 00 00 00 00 00 00 00 00
       1.0 0.0 0.0 0.0
000010 00 00 00 00 00 00 00 00 00 00 00 00 00 00 00 00
       0.0 0.0 0.0 0.0
000020 00 00 00 00 00 00 00 00 00 00 00 00 00 00 00 00
       0.0 0.0 0.0 0.0
000030 00 00 00 00 00 00 00 00 00 00 00 00 00 00 00 00
       0.0 0.0 0.0 0.0
000040 00 00 00 00 00 00 00 00 00 00 00 00 00 00 00 00
       0.0 0.0 0.0 0.0
000050 00 00 00 00 00 00 00 00 00 00 00 00 00 00 00 00
       0.0 0.0 0.0 0.0
000060 00 00 00 00 00 00 00 00 00 00 00 00 00 00 00 00
       0.0 0.0 0.0 0.0
000070 00 00 00 00 00 00 00 00 00 00 00 00 00 00 00 00
       0.0 0.0 0.0 0.0
000080 00 00 80 3f 00 00 80 3f 00 00 00 00 00 00 00 00
       1.0 1.0 0.0 0.0
000090 00 00 00 00 00 00 00 00 00 00 00 00 00 00 00 00
       0.0 0.0 0.0 0.0
0000a0 00 00 00 00 00 00 00 00 00 00 00 00 00 00 00 00
       0.0 0.0 0.0 0.0
0000b0 00 00 00 00 00 00 00 00 00 00 00 00 00 00 00 00
       0.0 0.0 0.0 0.0
0000c0 00 00 00 00 00 00 00 00 00 00 00 00 00 00 00 00
       0.0 0.0 0.0 0.0
0000d0 00 00 00 00 00 00 00 00 00 00 00 00 00 00 00 00
       0.0 0.0 0.0 0.0
0000e0 00 00 00 00 00 00 00 00 00 00 00 00 00 00 00 00
       0.0 0.0 0.0 0.0
0000f0 00 00 00 00 00 00 00 00 00 00 00 00 00 00 00 00
       0.0 0.0 0.0 0.0
000100 00 00 80 3f 00 00 80 3f 00 00 80 3f 00 00 00 00
       1.0 1.0 1.0 0.0
000110 00 00 00 00 00 00 00 00 00 00 00 00 00 00 00 00
       0.0 0.0 0.0 0.0
000120 00 00 00 00 00 00 00 00 00 00 00 00 00 00 00 00
       0.0 0.0 0.0 0.0
000130 00 00 00 00 00 00 00 00 00 00 00 00 00 00 00 00
       0.0 0.0 0.0 0.0
000140 00 00 00 00 00 00 00 00 00 00 00 00 00 00 00 00
       0.0 0.0 0.0 0.0
000150 00 00 00 00 00 00 00 00 00 00 00 00 00 00 00 00
       0.0 0.0 0.0 0.0
000160 00 00 00 00 00 00 00 00 00 00 00 00 00 00 00 00
       0.0 0.0 0.0 0.0
000170 00 00 00 00 00 00 00 00 00 00 00 00 00 00 00 00
       0.0 0.0 0.0 0.0
000180 00 00 80 3f 00 00 80 3f 00 00 80 3f 00 00 80 3f
       1.0 1.0 1.0 1.0
000190 00 00 00 00 00 00 00 00 00 00 00 00 00 00 00 00
       0.0 0.0 0.0 0.0
0001a0 00 00 00 00 00 00 00 00 00 00 00 00 00 00 00 00
       0.0 0.0 0.0 0.0
0001b0 00 00 00 00 00 00 00 00 00 00 00 00 00 00 00 00
       0.0 0.0 0.0 0.0
0001c0 00 00 00 00 00 00 00 00 00 00 00 00 00 00 00 00
       0.0 0.0 0.0 0.0
0001d0 00 00 00 00 00 00 00 00 00 00 00 00 00 00 00 00
       0.0 0.0 0.0 0.0
0001e0 00 00 00 00 00 00 00 00 00 00 00 00 00 00 00 00
       0.0 0.0 0.0 0.0
0001f0 00 00 00 00 00 00 00 00 00 00 00 00 00 00 00 00
       0.0 0.0 0.0 0.0
000200 00 00 80 3f 00 00 80 3f 00 00 80 3f 00 00 80 3f
       1.0 1.0 1.0 1.0
000210 00 00 80 3f 00 00 00 00 00 00 00 00 00 00 00 00
       1.0 0.0 0.0 0.0
000220 00 00 00 00 00 00 00 00 00 00 00 00 00 00 00 00
       0.0 0.0 0.0 0.0
000230 00 00 00 00 00 00 00 00 00 00 00 00 00 00 00 00
       0.0 0.0 0.0 0.0
000240 00 00 00 00 00 00 00 00 00 00 00 00 00 00 00 00
       0.0 0.0 0.0 0.0
000250 00 00 00 00 00 00 00 00 00 00 00 00 00 00 00 00
       0.0 0.0 0.0 0.0
000260 00 00 00 00 00 00 00 00 00 00 00 00 00 00 00 00
       0.0 0.0 0.0 0.0
000270 00 00 00 00 00 00 00 00 00 00 00 00 00 00 00 00
       0.0 0.0 0.0 0.0
000280 00 00 80 3f 00 00 80 3f 00 00 80 3f 00 00 80 3f
       1.0 1.0 1.0 1.0
000290 00 00 80 3f 00 00 80 3f 00 00 00 00 00 00 00 00
       1.0 1.0 0.0 0.0
0002a0 00 00 00 00 00 00 00 00 00 00 00 00 00 00 00 00
       0.0 0.0 0.0 0.0
0002b0 00 00 00 00 00 00 00 00 00 00 00 00 00 00 00 00
       0.0 0.0 0.0 0.0
0002c0 00 00 00 00 00 00 00 00 00 00 00 00 00 00 00 00
       0.0 0.0 0.0 0.0
0002d0 00 00 00 00 00 00 00 00 00 00 00 00 00 00 00 00
       0.0 0.0 0.0 0.0
0002e0 00 00 00 00 00 00 00 00 00 00 00 00 00 00 00 00
       0.0 0.0 0.0 0.0
0002f0 00 00 00 00 00 00 00 00 00 00 00 00 00 00 00 00
       0.0 0.0 0.0 0.0
000300 00 00 80 3f 00 00 80 3f 00 00 80 3f 00 00 80 3f
       1.0 1.0 1.0 1.0
000310 00 00 80 3f 00 00 80 3f 00 00 80 3f 00 00 00 00
       1.0 1.0 1.0 0.0
000320 00 00 00 00 00 00 00 00 00 00 00 00 00 00 00 00
       0.0 0.0 0.0 0.0
000330 00 00 00 00 00 00 00 00 00 00 00 00 00 00 00 00
       0.0 0.0 0.0 0.0
000340 00 00 00 00 00 00 00 00 00 00 00 00 00 00 00 00
       0.0 0.0 0.0 0.0
000350 00 00 00 00 00 00 00 00 00 00 00 00 00 00 00 00
       0.0 0.0 0.0 0.0
000360 00 00 00 00 00 00 00 00 00 00 00 00 00 00 00 00
       0.0 0.0 0.0 0.0
000370 00 00 00 00 00 00 00 00 00 00 00 00 00 00 00 00
       0.0 0.0 0.0 0.0
000380 00 00 80 3f 00 00 80 3f 00 00 80 3f 00 00 80 3f
       1.0 1.0 1.0 1.0
000390 00 00 80 3f 00 00 80 3f 00 00 80 3f 00 00 80 3f
       1.0 1.0 1.0 1.0
0003a0 00 00 00 00 00 00 00 00 00 00 00 00 00 00 00 00
       0.0 0.0 0.0 0.0
0003b0 00 00 00 00 00 00 00 00 00 00 00 00 00 00 00 00
       0.0 0.0 0.0 0.0
0003c0 00 00 00 00 00 00 00 00 00 00 00 00 00 00 00 00
       0.0 0.0 0.0 0.0
0003d0 00 00 00 00 00 00 00 00 00 00 00 00 00 00 00 00
       0.0 0.0 0.0 0.0
0003e0 00 00 00 00 00 00 00 00 00 00 00 00 00 00 00 00
       0.0 0.0 0.0 0.0
0003f0 00 00 00 00 00 00 00 00 00 00 00 00 00 00 00 00
       0.0 0.0 0.0 0.0

embedding.weight f4 [128, 64]
000000 e1 5f 14 c0 7f 92 22 be f2 f5 ec be 37 07 d2 be
       -2.318352 -0.15876196 -0.4628139 -0.4102113
000010 fc 3b 11 bf ca 27 4a 3f 94 43 8c 3e 7b bc e5 3f
       -0.56732154 0.78966963 0.27395308 1.7948145
000020 5f da 28 bf fe b6 03 3f 2a 39 95 3e 2b ec 03 bf
       -0.6595821 0.514511 0.29145175 -0.5153224
000030 67 b5 11 c0 68 74 89 bf 40 c5 ac 3f 30 6a 14 bf
       -2.276697 -1.0738649 1.3497696 -0.5797453
000040 36 e2 7c 3e 55 32 d5 be e7 78 ab 3f 10 b1 6b 3e
       0.24695668 -0.41639963 1.3396271 0.23016763
000050 54 f2 31 3e 75 17 66 3f 9f 78 fc 3d fa aa a4 3e
       0.17377597 0.8987954 0.12327694 0.32161695
000060 c1 bc 8b 3e 96 f0 04 40 43 53 c2 3f fb 16 4b be
       0.27292445 2.0771842 1.518166 -0.19832985
000070 8a e2 55 bf ec f1 a1 3f 8a 26 8f bf eb b6 82 bc
       -0.83548796 1.2651954 -1.1183636 -0.015956363
000080 24 02 54 bf 00 7d 2a bf 32 2d 26 3f 07 3e 09 c0
       -0.82815766 -0.66596985 0.6491271 -2.1444108
000090 8b ee a6 3d fe 33 e6 3e 14 a9 02 bf 50 7d 97 3e
       0.08150967 0.44961542 -0.5103924 0.29587793
0000a0 ae 92 8a be f2 f0 92 bf ad ee ce bd f2 80 9b bd
       -0.27065033 -1.1479781 -0.101041175 -0.07592954
0000b0 eb 51 db 3e 53 86 ec 3e 5b 4b c8 be 7e 8b 84 be
       0.42835936 0.4619623 -0.39119992 -0.25887674
0000c0 fc 43 a9 3d ee c1 e9 be c8 d5 97 bd 29 b3 77 bf
       0.0826492 -0.4565577 -0.074138224 -0.9675775
0000d0 26 d6 1e 3f 45 8b 4c 3f d1 65 30 bf 97 63 71 3f
       0.62045515 0.7990001 -0.6890536 0.9429259
0000e0 52 ef cb 3d f1 3b 4e 3f 0c bc de bf 02 97 ef 3e
       0.09957756 0.80560213 -1.7401137 0.46794897
0000f0 b7 c1 c5 3e 18 11 16 3f f6 df 09 40 a7 9b 70 be
       0.38624355 0.58619833 2.1542945 -0.23496877
000100 c9 21 54 3d fa b3 81 3f f4 2e 28 3f e6 d0 a2 3f
       0.051790033 1.013305 0.65696645 1.2720001
000110 51 3a 5f bf 3e f6 c9 bf a0 89 39 bd a7 72 04 bf
       -0.8719836 -1.5778272 -0.045297265 -0.51737446
000120 d7 11 b8 3e 08 85 7c 3f 1d 96 92 bf e6 38 41 be
       0.3595111 0.9864049 -1.1452061 -0.18869361
000130 60 ab ae bf ba 9f 28 bf 86 f9 94 3f c5 10 ad 3f
       -1.364605 -0.65868723 1.1638649 1.3520743
000140 4f 5e c4 3d 4a ad 46 bf 0b 8a e2 be 95 7d 91 3f
       0.095883004 -0.7760817 -0.44245943 1.136645
000150 14 1c 62 3d 5c ec d5 be c6 2a 74 bf 19 61 51 bf
       0.05520256 -0.4178189 -0.9537777 -0.81788784
000160 98 aa 9a 3f eb bb 8a 3f 0b 78 5f 3c 02 cd a1 3e
       1.2083311 1.0838598 0.01363946 0.3160172
000170 72 bd 42 3f eb a6 6c 3f e9 07 1e 3e d9 58 14 3f
       0.7607032 0.92442197 0.15432705 0.5794807
000180 b2 4b ed 3d 00 d3 2a 3f 8a 95 12 c0 6a c6 07 bf
       0.11586703 0.6672821 -2.2903771 -0.5303713
000190 be 41 8e 3f dd e8 c9 be 54 00 bb bc 91 a7 50 bf
       1.1113813 -0.39435473 -0.022827305 -0.81505686
0001a0 17 1d b5 3f 0e 7d 00 c0 c6 a9 35 bf 82 8e d4 3f
       1.4149503 -2.0076327 -0.7096218 1.660599
0001b0 10 61 25 3e c8 b1 97 bf d2 43 1a 3f b0 f1 dc 3f
       0.16150308 -1.185113 0.60259736 1.7261257
0001c0 24 ff 4f be 40 d0 4f 40 8a 99 03 bf fa ae c2 bd
       -0.20312172 3.2470856 -0.51406157 -0.095060304
0001d0 14 32 95 3f 52 ec 37 be 28 ab 16 3f 12 b9 58 40
       1.1655908 -0.17961243 0.58854914 3.3862958
0001e0 83 96 60 bf e1 5a ae bf b3 e6 b3 be 9b eb 10 3f
       -0.8772966 -1.3621484 -0.35136947 0.56609505
0001f0 9a d8 17 3f 00 d6 40 bd bb 3a 9d be 62 c3 12 3f
       0.5931488 -0.047079086 -0.3070887 0.5732938
000200 40 da 70 bf b2 50 39 3f c7 20 0a 3f 21 28 9b be
       -0.94083023 0.72388756 0.53956264 -0.30304053
000210 a4 2d 92 be 62 9b ba be ca f5 da be c9 e4 2a bf
       -0.28550446 -0.36446673 -0.42765647 -0.6675535
000220 bf fd 2d 3f ce 4d e8 be 31 17 07 3f 92 48 98 bd
       0.6796531 -0.4537186 0.5276976 -0.07435717
000230 c6 07 1f 3f 7b aa a7 3f 73 1a 88 be b7 de c5 bf
       0.62121236 1.3098902 -0.2658268 -1.5458592
000240 71 21 41 40 1e 18 93 3f 5f 5a ae 3f 60 4e 10 3f
       3.017666 1.1491735 1.3621329 0.5636959
000250 4c e7 b8 bf 16 2e 48 bf be 86 ee bd 30 79 63 bf
       -1.4445586 -0.7819532 -0.11646794 -0.8885679
000260 fe b5 05 c0 16 ce a2 be d2 a5 28 bf 4d 79 a9 3f
       -2.089233 -0.31797856 -0.6587802 1.3240143
000270 6f fc ac bf ae ee ed 3f b7 b2 91 3f d7 64 bb be
       -1.3514537 1.8588464 1.1382664 -0.36600372
000280 18 61 20 c0 c2 e2 49 3f 59 ce 90 be af d2 a4 bf
       -2.5059261 0.7886163 -0.2828243 -1.2876796
000290 cc d7 58 3f d0 76 e4 bf 8f 8b 5a 3c bc c8 a2 bf
       0.8470428 -1.7848759 0.013338937 -1.2717509
0002a0 c7 59 c5 3e 10 ac 4d 3f 42 f8 8a bf 3b 83 ad bf
       0.38545057 0.8034067 -1.0857012 -1.3555673
0002b0 8f db 60 3e fe 5d 5b be e8 5e 28 bf 59 87 1f 3d
       0.21958755 -0.21422574 -0.65769815 0.038947437
0002c0 80 76 a9 bb 0a 41 72 bf 7b 14 db 3e 9f f8 89 bd
       -0.005171597 -0.9463049 0.42789063 -0.06736874
0002d0 78 b0 3a 3e 6c 59 ca be a5 a4 0c c0 9e 9b 98 3f
       0.1823138 -0.39521348 -2.197549 1.1922491
0002e0 c0 a4 3a 3f 15 41 5c bf 30 a4 1c 40 62 c2 01 40
       0.7290764 -0.8603681 2.4475212 2.0274892
0002f0 73 8d 99 3f ea d9 9d 3f 77 97 56 be ef 86 34 bf
       1.1996292 1.2332127 -0.20956217 -0.7051839
000300 b4 1e 29 be e6 91 11 bf 2b 3b a9 be 69 c2 1a bf
       -0.16515619 -0.5686325 -0.33052954 -0.60452896
000310 ac 9f a8 3f f1 42 e3 be df df 1d bf 5c 9b 91 3f
       1.3173728 -0.4438701 -0.61669725 1.1375537
000320 f1 16 61 bf f7 2e c8 3f ad a8 7a be 27 bd 2e 3f
       -0.8792563 1.5639333 -0.24478407 0.68257374
000330 69 6e 84 3c 2a 05 0a bf dc 0f 36 bf cb 97 da bf
       0.016165929 -0.5391413 -0.7111795 -1.7077574
000340 2f 1d 8d 3e 07 12 b3 bf 52 e1 1f 3f 45 ed ff 3f
       0.27561328 -1.3989877 0.62453187 1.9994284
000350 b1 65 98 3e d5 2b 9c bf b7 7a 3f bf b8 d3 bf be
       0.29765084 -1.2200876 -0.74796623 -0.37466216
000360 15 f5 52 3f 96 19 c7 3f 77 12 bb be 9e d2 ec bf
       0.82405216 1.5554683 -0.36537525 -1.8501775
000370 63 b3 81 3f de ae e4 3e 78 24 2c bf e3 76 3d bf
       1.013287 0.44664663 -0.67243147 -0.7400953
000380 b6 70 69 3f fa a5 05 3e eb 13 fa bd 69 2b 0a bc
       0.9118761 0.13051596 -0.1221083 -0.008433201
000390 66 9b c5 bf e8 19 77 3c 4d da 43 bf 47 60 94 3e
       -1.5438049 0.01508186 -0.76504976 0.28979704
0003a0 d5 8c 18 bf 73 00 09 bf 82 0f 61 40 6e 0b 9d 3f
       -0.5958989 -0.5351631 3.5165715 1.2269113
0003b0 c7 f8 46 40 54 af 8e bf 4d be 6b be a5 8e d4 3f
       3.1089342 -1.1147256 -0.23021813 1.6606032
0003c0 26 1b 94 3f 43 80 5c 3f be 7a 8d 3f 1b c7 92 3f
       1.1570785 0.8613321 1.1053083 1.1467012
0003d0 e9 87 8a 3f 3c 56 1f 3e 33 91 09 3f cb c3 12 3d
       1.0822726 0.1556024 0.5373718 0.035831254
0003e0 57 da d4 be 5c 74 4e bf 10 27 24 3e 32 75 10 be
       -0.4157283 -0.806463 0.16030526 -0.14107206
0003f0 d4 78 61 bf 19 96 46 3f be 6f 58 3f 58 2d fc 3e
       -0.88074994 0.7757278 0.84545505 0.49253345

pos_encoding.pe f4 [32, 64]
000000 00 00 00 00 00 00 80 3f 00 00 00 00 00 00 80 3f
       0.0 1.0 0.0 1.0
000010 00 00 00 00 00 00 80 3f 00 00 00 00 00 00 80 3f
       0.0 1.0 0.0 1.0
000020 00 00 00 00 00 00 80 3f 00 00 00 00 00 00 80 3f
       0.0 1.0 0.0 1.0
000030 00 00 00 00 00 00 80 3f 00 00 00 00 00 00 80 3f
       0.0 1.0 0.0 1.0
000040 00 00 00 00 00 00 80 3f 00 00 00 00 00 00 80 3f
       0.0 1.0 0.0 1.0
000050 00 00 00 00 00 00 80 3f 00 00 00 00 00 00 80 3f
       0.0 1.0 0.0 1.0
000060 00 00 00 00 00 00 80 3f 00 00 00 00 00 00 80 3f
       0.0 1.0 0.0 1.0
000070 00 00 00 00 00 00 80 3f 00 00 00 00 00 00 80 3f
       0.0 1.0 0.0 1.0
000080 00 00 00 00 00 00 80 3f 00 00 00 00 00 00 80 3f
       0.0 1.0 0.0 1.0
000090 00 00 00 00 00 00 80 3f 00 00 00 00 00 00 80 3f
       0.0 1.0 0.0 1.0
0000a0 00 00 00 00 00 00 80 3f 00 00 00 00 00 00 80 3f
       0.0 1.0 0.0 1.0
0000b0 00 00 00 00 00 00 80 3f 00 00 00 00 00 00 80 3f
       0.0 1.0 0.0 1.0
0000c0 00 00 00 00 00 00 80 3f 00 00 00 00 00 00 80 3f
       0.0 1.0 0.0 1.0
0000d0 00 00 00 00 00 00 80 3f 00 00 00 00 00 00 80 3f
       0.0 1.0 0.0 1.0
0000e0 00 00 00 00 00 00 80 3f 00 00 00 00 00 00 80 3f
       0.0 1.0 0.0 1.0
0000f0 00 00 00 00 00 00 80 3f 00 00 00 00 00 00 80 3f
       0.0 1.0 0.0 1.0
000100 a4 6a 57 3f 41 51 0a 3f ce 7a 2e 3f b0 54 3b 3f
       0.84147096 0.54030234 0.68156135 0.731761
000110 ba 7d 08 3f 0d 94 58 3f f1 90 d1 3e c6 92 69 3f
       0.53316844 0.8460091 0.40930894 0.91239583
000120 3e 39 9f 3e 6b 4e 73 3f 25 8f 70 3e f1 d5 78 3f
       0.3109836 0.9504153 0.23492105 0.9720145
000130 3a 23 35 3e 83 f6 7b 3f f3 25 08 3e 28 ba 7d 3f
       0.17689219 0.9842302 0.13295726 0.99112177
000140 76 75 cc 3d 98 b8 7e 3f 36 6f 99 3d d1 47 7f 3f
       0.099833414 0.9950042 0.07491915 0.9971896
000150 ae 36 66 3d 68 98 7f 3f fa ac 2c 3d bd c5 7f 3f
       0.05620449 0.9984193 0.04215715 0.999111
000160 5b 81 01 3d 3c df 7f 3f a5 3e c2 3c 93 ed 7f 3f
       0.031617504 0.99950004 0.023711512 0.99971884
000170 42 ab 91 3c a3 f5 7f 3f 49 7a 5a 3c 2c fa 7f 3f
       0.017781857 0.99984187 0.013334819 0.99991107
000180 57 d6 23 3c b9 fc 7f 3f 16 b9 f5 3b 28 fe 7f 3f
       0.009999833 0.99995 0.0074988706 0.99997187
000190 5a 44 b8 3b f7 fe 7f 3f 5a 2e 8a 3b 6b ff 7f 3f
       0.0056233825 0.9999842 0.0042169513 0.9999911
0001a0 1c 3e 4f 3b ac ff 7f 3f 03 69 1b 3b d1 ff 7f 3f
       0.0031622713 0.999995 0.0023713715 0.9999972
0001b0 20 15 e9 3a e6 ff 7f 3f 8b c9 ae 3a f1 ff 7f 3f
       0.0017782785 0.99999845 0.0013335211 0.9999991
0001c0 6d 12 83 3a f8 ff 7f 3f 89 94 44 3a fb ff 7f 3f
       0.0009999998 0.9999995 0.000749894 0.9999997
0001d0 13 6a 13 3a fd ff 7f 3f 21 17 dd 39 ff ff 7f 3f
       0.0005623411 0.9999998 0.00042169637 0.99999994
0001e0 61 cb a5 39 ff ff 7f 3f 0d a8 78 39 00 00 80 3f
       0.00031622782 0.99999994 0.00023713727 1.0
0001f0 53 77 3a 39 00 00 80 3f 6d d4 0b 39 00 00 80 3f
       0.00017782794 1.0 0.00013335208 1.0
000200 b7 c7 68 3f 33 11 d5 be d9 5a 7f 3f 53 4d 91 3d
       0.9092974 -0.41614684 0.99748 0.070948265
000210 0a f2 66 3f b2 e8 dc 3e 12 35 3f 3f 02 39 2a 3f
       0.9021307 0.43146282 0.74690354 0.66493237
000220 1b 54 17 3f ec 7b 4e 3f b5 d3 e9 3e 69 be 63 3f
       0.5911271 0.8065784 0.45669332 0.8896242
000230 f6 47 b2 3e a6 fa 6f 3f 82 f0 86 3e f5 f2 76 3f
       0.34820527 0.93741834 0.26355368 0.96464473
000240 f8 6f 4b 3e a5 e5 7a 3f d3 00 19 3e 4f 20 7d 3f
       0.19866931 0.9800666 0.1494172 0.98877424
000250 86 d9 e5 3d f3 61 7e 3f ae 85 ac 3d 0e 17 7f 3f
       0.1122313 0.9936821 0.08423935 0.99644554
000260 c8 70 81 3d f9 7c 7f 3f aa 30 42 3d 4e b6 7f 3f
       0.063203394 0.9980007 0.04740969 0.9988755
000270 5c a5 11 3d 8e d6 7f 3f 50 75 da 3c b1 e8 7f 3f
       0.03555809 0.9993676 0.026667267 0.99964434
000280 3e d4 a3 3c e5 f2 7f 3f 51 b7 75 3c a1 f8 7f 3f
       0.019998666 0.9998 0.014997319 0.9998875
000290 9b 43 38 3c db fb 7f 3f 0a 2e 0a 3c ab fd 7f 3f
       0.011246587 0.99993676 0.008433828 0.9999644
0002a0 d8 3d cf 3b b1 fe 7f 3f e7 68 9b 3b 43 ff 7f 3f
       0.006324511 0.99998003 0.00474273 0.99998873
0002b0 08 15 69 3b 96 ff 7f 3f 80 c9 2e 3b c4 ff 7f 3f
       0.0035565514 0.9999937 0.0026670396 0.9999964
0002c0 68 12 03 3b df ff 7f 3f 85 94 c4 3a ed ff 7f 3f
       0.0019999985 0.99999803 0.0014997876 0.99999887
0002d0 12 6a 93 3a f5 ff 7f 3f 1f 17 5d 3a fa ff 7f 3f
       0.0011246821 0.99999934 0.0008433926 0.99999964
0002e0 60 cb 25 3a fd ff 7f 3f 0c a8 f8 39 fe ff 7f 3f
       0.0006324556 0.9999998 0.0004742745 0.9999999
0002f0 53 77 ba 39 ff ff 7f 3f 6d d4 8b 39 00 00 80 3f
       0.00035565588 0.99999994 0.00026670416 1.0
000300 c3 81 10 3e 26 70 7d bf de 3c 47 3f ce bf 20 bf
       0.14112 -0.9899925 0.7782725 -0.6279267
000310 d7 45 7e 3f ab 7f ed bd 63 21 74 3f 63 18 9a 3e
       0.9932532 -0.11596616 0.95363444 0.3009673
000320 c2 09 50 3f 58 2f 15 3f b7 24 27 3f a2 e7 41 3f
       0.8126489 0.58275366 0.652904 0.7574407
000330 6c 2f 02 3f 29 6d 5c 3f a7 68 c7 3e 37 c9 6b 3f
       0.5085361 0.86104065 0.3894703 0.92103904
000340 6c 4e 97 3e ef 90 74 3f e2 6d 64 3e 92 8c 79 3f
       0.2955202 0.9553365 0.22307542 0.9748012
000350 d7 ee 2b 3e 9e 5d 7c 3f 2c 33 01 3e 43 f4 7d 3f
       0.16790329 0.9858035 0.12617177 0.9920084
000360 c0 ff c1 3d 4f d9 7e 3f 06 93 91 3d 3a 5a 7f 3f
       0.094726086 0.99550337 0.071081206 0.9974705
000370 4e 69 5a 3d c3 a2 7f 3f c5 d1 23 3d 90 cb 7f 3f
       0.053323083 0.9985773 0.039994974 0.99919987
000380 1f b9 f5 3c 83 e2 7f 3f 47 47 b8 3c 6b ef 7f 3f
       0.0299955 0.99955004 0.022494925 0.999747
000390 c6 31 8a 3c ad f6 7f 3f 46 44 4f 3c c1 fa 7f 3f
       0.016869437 0.9998577 0.012650555 0.99991995
0003a0 0d 6e 1b 3c 0d fd 7f 3f 13 1d e9 3b 58 fe 7f 3f
       0.009486687 0.999955 0.0071140616 0.9999747
0003b0 a8 cf ae 3b 11 ff 7f 3f 13 17 83 3b 7a ff 7f 3f
       0.005334813 0.99998575 0.0040005534 0.999992
0003c0 92 9b 44 3b b5 ff 7f 3f 60 6f 13 3b d6 ff 7f 3f
       0.0029999954 0.9999955 0.0022496805 0.9999975
0003d0 17 1f dd 3a e8 ff 7f 3f 56 d1 a5 3a f3 ff 7f 3f
       0.0016870227 0.99999857 0.0012650888 0.9999992
0003e0 10 b1 78 3a f9 ff 7f 3f 09 7e 3a 3a fc ff 7f 3f
       0.00094868336 0.9999996 0.00071141176 0.99999976
0003f0 7e d9 0b 3a fe ff 7f 3f a4 be d1 39 ff ff 7f 3f
       0.0005334838 0.9999999 0.00040005625 0.99999994

layers.0.ln1.weight f4 [64]
000000 5e 27 81 3e b8 0a 8d 3e 1d 38 9a 3e 4c 2a 8f 3e
       0.25225347 0.2754724 0.30120936 0.27961957
000010 20 4b a1 3e bb 77 f5 3e ed b6 34 3f 1d 85 e4 3e
       0.31502628 0.4794291 0.7059162 0.44632807
000020 90 92 f4 3e 78 f9 53 3f 5a 1a 5b 3f 50 14 2f 3f
       0.47768068 0.82802534 0.85587084 0.6839037
000030 f3 cf 44 3f b9 dd 60 3f 0e 28 7a 3f da 2d 7e 3f
       0.76879805 0.8783832 0.9771737 0.99288714
000040 ba f5 e7 3e e1 2f 4b 3f 2e 40 28 3f d4 e9 86 3f
       0.45304662 0.7936993 0.6572293 1.0540109
000050 0e 1e 5b 3f 6f 93 58 3f 25 7c 69 3f 1a 19 08 3f
       0.85592735 0.84599966 0.91205055 0.531633
000060 ec 40 16 3f e8 5e 14 3f e6 f7 1e 3f cc 41 d0 3e
       0.5869281 0.57957315 0.62097013 0.406752
000070 08 da cc 3e 8f 5b c6 3e b4 8a c1 3e e2 7d ca 3e
       0.40010095 0.3874173 0.37801135 0.39549166
000080 d3 76 ad 3e 92 77 a8 3e 43 de 0c 3f b6 c0 c8 3e
       0.33879718 0.32903725 0.55026644 0.39209527
000090 08 f2 cf 3e a9 28 dc 3e 5b c4 06 3f 43 55 b1 3e
       0.40614343 0.4299977 0.52643365 0.34635362
0000a0 a7 9b ba 3e 53 8d 00 3f 0c 54 c5 3e 1a df 06 3f
       0.36446878 0.50215644 0.38540685 0.52684176
0000b0 1e 7e c4 3e df e1 c7 3e 05 01 0b 3f a3 fd aa 3e
       0.3837747 0.39039513 0.5429843 0.33396634
0000c0 cf da 04 3f fa 6f de 3e 59 37 a6 3e 5c 8f c0 3e
       0.51896375 0.43444806 0.32464102 0.37609375
0000d0 08 ea a9 3e 53 19 a0 3e da 7b 06 3f b9 67 bc 3e
       0.33186364 0.3126932 0.5253273 0.36797884
0000e0 b6 28 e5 3e 65 cc d6 3e 74 8f d0 3e ca d8 e0 3e
       0.44757622 0.41952816 0.40734446 0.43915397
0000f0 41 9e cb 3e 6d 51 f1 3e 37 1a b2 3e eb 76 d0 3e
       0.39769176 0.47132435 0.34785625 0.40715727

layers.0.ln1.bias f4 [64]
000000 19 a0 93 bd cf 30 c7 3c c4 4d e4 3c bc 32 39 3b
       -0.072082706 0.024315266 0.027869113 0.0028259
000010 e9 b2 85 3d 1e f8 62 3e 5f 15 81 3d 3c 4d e6 3d
       0.06528265 0.22164962 0.06302904 0.112452
000020 ea d8 3e 3e 75 a2 ce 3d 0e 6d 63 3e 1f 55 f2 3c
       0.18637434 0.1008958 0.2220957 0.029581605
000030 d5 2c ce 3d 84 79 42 3d d2 72 93 bc b4 48 30 3e
       0.10067145 0.047479168 -0.017999087 0.17215234
000040 c0 44 7e 3e ae f2 ca 3d c0 25 00 be 9c 9a d6 bc
       0.24830914 0.09909569 -0.125144 -0.02619677
000050 46 a5 04 3d db 79 28 be e1 59 01 3e 9a dc 97 be
       0.03238418 -0.16452734 0.12631942 -0.29660493
000060 ac 92 31 3d 5a 2f 58 be 7b b3 16 3b ca 37 c3 bc
       0.043352768 -0.21111813 0.0022995162 -0.023830313
000070 92 65 7d 3e 02 3f 63 be 0d bc 17 3e 87 c8 c7 bd
       0.24745777 -0.22192004 0.1481783 -0.097550444
000080 dc 82 0e 3e 92 2b 6b bd 2b 42 b2 3c 6e fb 0f be
       0.13917106 -0.0574146 0.021760067 -0.14060757
000090 82 73 87 3d 5c 73 61 be ed 22 82 3d f8 77 63 be
       0.06613828 -0.22016662 0.06354318 -0.22213733
0000a0 68 37 03 3d 19 fe a5 be 16 b2 a4 3c 0e 63 fc bd
       0.03203526 -0.32420424 0.02010445 -0.12323581
0000b0 08 54 fd 3d 6e b8 7a be 3a e6 fd 3e d0 45 58 bd
       0.12369543 -0.24484417 0.4958971 -0.052800953
0000c0 7a 19 82 3e 0a f1 46 be 28 9e 2f 3e 08 48 5a bd
       0.25410062 -0.19427887 0.17150176 -0.05329135
0000d0 11 8c ff bc a3 74 88 3c 1a 6b 74 3e be e2 8c 3d
       -0.031194719 0.01665718 0.23868981 0.06879185
0000e0 e6 30 58 3d 40 d7 e0 bd c9 51 8a 3d 58 2f 3a be
       0.05278101 -0.10978556 0.067538805 -0.18182123
0000f0 e3 02 66 3e cf d9 88 be bb 1c c2 3c eb 99 10 be
       0.22462039 -0.26728675 0.02369534 -0.14121215

layers.0.attn.Wq.weight f4 [32, 64]
000000 b1 f2 d4 be 04 31 15 be f5 2e 79 3f 8d 63 16 bf
       -0.4159141 -0.14569479 0.97337276 -0.5874565
000010 a7 38 f6 bd 81 0d db be a2 3f dc 3d 0f b8 e2 3d
       -0.12022524 -0.4278374 0.107543245 0.11070263
000020 2e 0a 45 3e 6f de d1 3d 97 47 d0 be 56 cf 95 3e
       0.19242164 0.10247504 -0.4067962 0.29259747
000030 6f 56 00 bf 0a a4 a0 3d 22 62 9c 3d a5 0f 68 3e
       -0.5013189 0.07843788 0.07635905 0.22662218
000040 fc 19 1d 3e 3b 25 57 bc 88 51 a3 bd 23 47 10 3e
       0.15341944 -0.013131435 -0.07974535 0.14089637
000050 91 61 52 be a3 fb 11 bd 69 c8 4c be 9e 37 9b 3e
       -0.20545031 -0.03564037 -0.19998325 0.3031587
000060 a4 c5 3f 3e ed 64 0d be 33 b6 e2 bd f4 5a 91 3e
       0.18727738 -0.13808031 -0.11069908 0.28389704
000070 7a aa 99 be 52 f9 81 bd 11 73 74 bd a2 65 c3 bd
       -0.30012876 -0.06346382 -0.05968005 -0.09540869
000080 c0 45 53 bb 08 48 06 3f bc 93 d6 3e e0 3a d9 3e
       -0.003223762 0.5245366 0.41909587 0.4242773
000090 81 43 08 be fb 6e af 3e ba aa e3 3e 3d 90 6c 3e
       -0.13307 0.3426436 0.44466192 0.23101898
0000a0 c0 6b b2 be cd 35 19 be 00 10 d2 3d 61 32 61 be
       -0.34847832 -0.1496193 0.10256958 -0.21991874
0000b0 7c 4d cc be c9 4a 82 be 16 74 9a bd 38 ec 03 be
       -0.39902866 -0.25447682 -0.07541673 -0.12883079
0000c0 1e 2e 30 3e 85 27 18 bf 12 8f 1b be 9f 9c ba 3d
       0.17205092 -0.594353 -0.15191296 0.09111904
0000d0 75 c9 4f be a5 b7 ad be a7 81 b9 3e d7 02 09 3f
       -0.20291694 -0.33929172 0.3623173 0.5351996
0000e0 2b 3f 11 be b1 09 08 3e 55 55 3e 3e f6 37 09 bf
       -0.14184253 0.13284947 0.18587239 -0.53601015
0000f0 01 67 10 3e e1 b3 92 3d e9 ae ac be 06 65 50 be
       0.14101793 0.071632154 -0.33727196 -0.20351037
000100 4c d3 28 3e 51 4d a4 be 40 e4 e8 be cf 2c bd 3e
       0.16486853 -0.32090238 -0.4548664 0.3694825
000110 3b 3b 89 3e 25 e8 c8 3d ee 06 c7 be 33 75 ab bb
       0.26803002 0.09809903 -0.38872474 -0.005232477
000120 b9 a0 bc 3d 1e 0c 45 bd f5 00 6a be e9 9e 29 be
       0.09210343 -0.04810726 -0.22851928 -0.16564526
000130 99 01 02 be 3e 1a fa 3d 89 28 c8 3e 6c f6 c6 3d
       -0.12695922 0.122120366 0.39093426 0.0971497
000140 7c ab 03 be db 4d 62 bd 59 aa a0 be a6 f3 14 3e
       -0.12858385 -0.05525003 -0.31379965 0.1454607
000150 ae ca 0b bd c9 7e 2b 3e 0b e7 5f 3d 1d 2a 42 bd
       -0.034128837 0.16747583 0.0546637 -0.047403444
000160 b8 7e 2c 3c a8 f6 0a 3d fb 76 b9 be 39 c3 10 be
       0.010528259 0.033926636 -0.36223587 -0.14136972
000170 eb 4a 1c 3f f6 a2 5d be cb c9 d2 bd 8d e9 5b bd
       0.61051816 -0.21644196 -0.10292395 -0.05368953
000180 30 bc 50 3e de cc 79 3f 6d 59 9a 3e e1 89 ba 3d
       0.20384288 0.9757823 0.3014635 0.091083296
000190 29 51 a4 be e1 91 c5 3e 27 97 93 3e 55 f2 0a be
       -0.3209317 0.3858786 0.28826258 -0.13569005
0001a0 d9 69 55 3d 0a ae 1a be 44 d5 25 3e dc 9c 6c be
       0.052102897 -0.15105453 0.16194636 -0.23106712
0001b0 69 fd 88 be c2 c6 d3 bd 03 b8 14 3e c4 f2 f7 bd
       -0.26755837 -0.103406444 0.1452332 -0.12106851
0001c0 f7 c9 08 be a4 4e fe bd 1f 69 82 be 44 ea 13 3f
       -0.13358293 -0.12417343 -0.25470826 0.57779336
0001d0 90 c5 14 bf 79 73 e6 3d bb 89 9c be 6e 99 b8 be
       -0.58113956 0.112524934 -0.3057383 -0.36054558
0001e0 68 8c 6f be b2 76 52 3e 12 01 58 3d 61 fe 15 3f
       -0.23393404 0.20553091 0.052735396 0.58591276
0001f0 b9 88 d6 3d 80 27 a7 be af 20 5d 3e ed cd cd 3e
       0.104752965 -0.32647324 0.21594499 0.4019617
000200 e8 cf d4 3d 9e 0e 2f 3f ac c6 f8 bc 26 2f 6c 3e
       0.103912175 0.6838168 -0.030368172 0.2306486
000210 5e 24 8f be ba 29 6c be 18 87 fc bd d2 c9 a6 be
       -0.27957433 -0.23062792 -0.123304546 -0.32575852
000220 1b c3 a9 be 16 5e ce 3d 01 dc 2d be c5 0c 0f bf
       -0.33156666 0.10076539 -0.16978456 -0.5587886
000230 79 8b 53 be 31 26 08 be f3 d5 e3 3e 88 68 01 3d
       -0.20658673 -0.13295819 0.44499168 0.03159383
000240 12 44 3d be 2b 3b 2d 3e 9e 07 a1 bc cc e3 a8 3e
       -0.18482998 0.16917102 -0.019656952 0.32986295
000250 67 aa a6 be 93 f0 9b be 2a cc a9 3e 91 ba 47 3e
       -0.32551882 -0.3045698 0.33163577 0.19504763
000260 7e d1 b4 be a9 ea b3 3d 93 68 93 bc 9c 06 91 3e
       -0.3531608 0.08784992 -0.0179942 0.28325355
000270 9b df 50 3f 5e c7 2e bf 3b 78 cc be af 3a fc bd
       0.81591195 -0.6827296 -0.3993548 -0.123158805
000280 21 d8 7c bd 0c a4 f9 be d7 a2 71 be 52 84 9d 3d
       -0.061729554 -0.4875797 -0.23597275 0.07691254
000290 62 25 de be 1c 1f 1e 3f 2d 60 05 3d e5 06 24 3e
       -0.43387896 0.6176622 0.032562423 0.16018255
0002a0 e0 9c 25 bf 54 fd ac be bd ac c1 3e a0 de d3 3e
       -0.646925 -0.33787024 0.378271 0.41380787
0002b0 0b 0f 3a be e0 e8 07 3f 47 fd 9c bd c6 ae 9d 3e
       -0.18169801 0.53089714 -0.07665496 0.30797404
0002c0 65 89 ed 3e f5 e6 0c 3f 18 63 37 bd d6 e9 fa 3e
       0.46393886 0.5503991 -0.044772238 0.49006528
0002d0 4e 20 82 be bb 78 13 3e f8 91 c0 3e 20 b7 fa bd
       -0.25415272 0.14401524 0.37611365 -0.122419596
0002e0 c9 72 a2 3e a3 99 b6 3e a0 a0 51 3d e0 38 02 3f
       0.317282 0.3566409 0.051178575 0.50868034
0002f0 cf 82 a0 3e 53 16 fc be e9 ad be bd 0a 6c 16 3f
       0.313498 -0.49235782 -0.093105145 0.58758605
000300 25 da 6a be ef 7c 93 3e 7c aa 8c 3e a2 b7 03 3e
       -0.22934778 0.28806254 0.2747382 0.12863019
000310 56 9b 52 3e aa 2e da bc aa 7e c0 be 2e 20 87 3d
       0.20567068 -0.02663358 -0.37596637 0.06597935
000320 97 33 d9 be ae 60 2e be 2e 4e 5a bd 7c 81 80 3d
       -0.42422172 -0.17029068 -0.053297214 0.06274697
000330 d8 a3 66 be 69 d3 46 3e 0d ab 60 3e 34 3e aa 3d
       -0.22523439 0.19416584 0.2194025 0.083126456
000340 21 aa 62 bd e2 48 95 be bf 0b c7 bd 77 18 e7 be
       -0.05533803 -0.29157168 -0.09719037 -0.45135853
000350 a9 23 ec 3e e5 e5 83 bd be 4c c3 bd 4c c5 21 3f
       0.46120957 -0.06440333 -0.09536122 0.63191676
000360 46 8a 09 3d 75 bb 69 3d cb 19 f1 bc d7 56 fd be
       0.033579133 0.05706354 -0.029431244 -0.49480316
000370 f0 27 ca 3c 90 11 a6 be a0 e4 89 be 1d b5 9a 3e
       0.024677247 -0.32435274 -0.2693224 0.30216303
000380 c6 5d 27 3f 6c 6c 05 3e d6 10 46 bf 8d c0 04 bd
       0.6537746 0.13029641 -0.7736944 -0.032410193
000390 78 bb f5 bd dd 73 4e be 97 b8 50 3d 4f 0e e8 3e
       -0.119986475 -0.20161386 0.05095729 0.45323417
0003a0 da cb 11 bf 57 51 e5 3e 4c 22 32 be 53 37 97 be
       -0.5695168 0.4478862 -0.17395896 -0.29534397
0003b0 9e e7 62 3e 5a 74 db 3c d3 31 b1 3e 18 b7 5e be
       0.22158667 0.02678888 0.34608325 -0.21749532
0003c0 96 8c 44 bd 5e 1f d2 be cd e9 46 be 55 66 97 3d
       -0.047985636 -0.41039556 -0.19425125 0.07392565
0003d0 a8 5d 61 be 23 69 d9 3e 40 f1 a8 be 5d 15 3a 3f
       -0.22008383 0.42463025 -0.3299656 0.7268885
0003e0 a6 a2 d4 3e 04 3c 0a be 19 b9 55 3d c9 51 a1 3d
       0.4153034 -0.13499457 0.052178476 0.078769274
0003f0 f2 f6 d9 3e 10 98 1a bc 14 9f 40 be a2 cb 34 3e
       0.42571217 -0.009435669 -0.18810683 0.17655805

layers.0.attn.Wk.weight f4 [32, 64]
000000 33 e7 5f bd 6e 4e 88 3d 85 10 b3 3f 37 bb 1c bc
       -0.054663848 0.06655584 1.3989416 -0.00956612
000010 fd ec 14 be 41 d8 04 bf 32 87 d4 3e c0 a3 48 3e
       -0.14543529 -0.5189248 0.41509396 0.19593716
000020 6c 4a 20 3f d0 cf ad 3e 23 3d 0b 3e cf ba b3 3e
       0.6261356 0.3394761 0.1359754 0.3510346
000030 df 8b b6 be 17 49 8d 3e d0 01 2f 3e 6a 93 ed 3c
       -0.35653588 0.27594826 0.17090535 0.029000957
000040 f6 7a 26 be 48 1a d8 bd 6c 52 ed 3d 9b 9b 17 be
       -0.16257843 -0.10551888 0.11587986 -0.14805453
000050 55 83 ab 3e 2c e0 7c 3d a4 e9 6e 3e dc 35 de be
       0.33498636 0.061737224 0.23331314 -0.43400466
000060 51 c8 7f be 13 e2 d1 be cf 29 7e 3e 0a f8 c7 be
       -0.24978758 -0.40992793 0.24820636 -0.39056426
000070 ce 24 f9 3d 2c 4f 65 bd 30 35 39 bf 5e 16 0a be
       0.12165223 -0.055983707 -0.7234678 -0.13485095
000080 f2 c5 40 3e 6d 74 b8 be 90 ec 10 be 38 bc 3d be
       0.1882551 -0.36026326 -0.14152741 -0.18528831
000090 3b 61 f8 3e f8 10 98 bd 31 fc 9c be 67 50 2c bd
       0.4851168 -0.074251115 -0.30661157 -0.042068865
0000a0 6f e4 8f bd dc e0 f6 be e8 b6 68 be 2d e0 02 3e
       -0.07025992 -0.4821843 -0.22726023 0.12780829
0000b0 31 d4 c3 3d ef 08 3b bd c1 0f a1 be 44 22 6d 3c
       0.09561957 -0.045662817 -0.31457332 0.014473502
0000c0 80 84 02 3e 22 ee 65 3e 92 67 31 3e c8 d9 7e 3b
       0.12745857 0.22454122 0.17324665 0.0038887132
0000d0 76 ee c2 be 87 e0 44 be 13 4d 62 3d 2d 45 88 3e
       -0.38072556 -0.19226275 0.055249285 0.26615277
0000e0 24 f9 d5 3c f1 b1 13 be 7f 4c 39 3c 35 ec 2d be
       0.026119776 -0.14423348 0.011309742 -0.16984637
0000f0 c1 3d 8d be c8 32 42 3e 95 b7 c1 3e cb 55 39 be
       -0.27586177 0.18964684 0.37835374 -0.18099134
000100 82 5b 0e 3f 07 28 38 3e 9c e2 1a bf 4a bd 03 be
       0.5560838 0.17984019 -0.6050203 -0.12865177
000110 0f 65 f9 3e ea 07 97 bd 70 2f 3d be d7 7c b0 be
       0.48709914 -0.07374556 -0.18475127 -0.34470245
000120 a8 23 a0 3d 15 88 e0 be 6c d2 2b 3e 84 dc 96 be
       0.07819301 -0.43853822 0.16779488 -0.29465115
000130 a8 aa d5 be 3d 4e 9c be cc 43 92 3e cc e6 08 bf
       -0.41731763 -0.3052844 0.2856735 -0.5347717
000140 3f 82 24 3e f3 c0 c2 bd b6 6b 06 3f 77 7e 2e bf
       0.1606531 -0.095094584 0.52508104 -0.6816172
000150 0e cc 3d 3e 5a 71 99 be ce 4a 9f 3e 88 9c 0e be
       0.18534872 -0.29969293 0.3111176 -0.139269
000160 9d 7c 01 3e db 35 5a be 0d d9 d0 3d d4 3f b9 3e
       0.12645192 -0.21309607 0.10197649 0.3618151
000170 c5 91 81 be 40 4b 95 be 03 01 ee be 4b 01 82 be
       -0.25306526 -0.29158974 -0.46485147 -0.2539161
000180 1b 14 0e 3e 9a 33 4c be 56 49 03 3e 5f e1 24 be
       0.13874857 -0.1994156 0.12820944 -0.16101597
000190 b4 20 35 be 6c d1 cf 3e 0a 71 47 be e7 bc 2c bd
       -0.17688257 0.40589464 -0.19476715 -0.04217234
0001a0 3c 3e 9e 3d 7e 95 b9 be 18 7e ae be 2e f4 e5 3e
       0.07726714 -0.36246866 -0.34080577 0.44912857
0001b0 0f 34 fe 3d c4 a0 21 3d 16 77 c6 bd ea 01 ff 3d
       0.12412273 0.03945996 -0.096906826 0.12451537
0001c0 c1 1c bc 3e 97 73 55 bc 9a 38 a8 3e 27 dc 7b be
       0.36740687 -0.013028047 0.32855684 -0.245957
0001d0 7e 0b bc 3e 63 3e 26 bd 5b 7c c2 3d ef df dd 3e
       0.36727518 -0.04058684 0.09496375 0.4333491
0001e0 0a 8d 0a 3e 50 ed 8a 3e 0f fb 67 3e c3 d1 71 be
       0.13530365 0.2713418 0.22654365 -0.23615174
0001f0 7d 03 94 3d cf d1 e2 3e 60 87 91 bd d8 ef 08 bf
       0.07227228 0.44300696 -0.07105899 -0.5349097
000200 e2 3b c2 be b5 35 72 3e 5b 9b 5d be 62 ca fb bc
       -0.37936312 0.236533 -0.21641295 -0.030736152
000210 d3 71 59 3d b5 ee d5 bc 75 9c 51 3d a2 c8 1e bd
       0.053087067 -0.026114801 0.0511746 -0.038765557
000220 c1 f1 c4 bd 7b 25 6e be 39 e4 00 bf b3 7c e5 be
       -0.096164234 -0.23256485 -0.5034824 -0.448217
000230 ab 38 0c bd 79 0d 0d bf e5 61 bd 3e 38 c2 39 bf
       -0.03423373 -0.5509868 0.3698875 -0.7256198
000240 b4 e1 ba 3e b8 7c e8 be 8d 4d b2 3e d0 f2 48 bf
       0.36500323 -0.45407653 0.34824792 -0.784955
000250 0e 33 41 3f 13 42 b1 be c1 06 25 3f 19 1a 52 be
       0.7546853 -0.34620723 0.6446343 -0.20517768
000260 b4 ae 13 3f 44 64 37 3e 2b 24 e0 3e c2 14 1f be
       0.5768845 0.17909342 0.43777594 -0.15535262
000270 2a f9 94 3d 16 fa 56 3e ad 3a 88 3e 07 d4 34 3d
       0.07274087 0.20993838 0.26607266 0.044147518
000280 5f 08 67 3c 64 d2 38 3e a7 30 d6 3c d7 fa 28 3e
       0.014101117 0.18049008 0.026146246 0.16501938
000290 80 c7 43 3e 80 a6 39 3e 8a fa 04 be 58 53 3b 3e
       0.19119072 0.18129921 -0.12986198 0.18293512
0002a0 59 5c 80 3e 02 17 b9 3c 77 5e ef bd d7 ad 3b bc
       0.25070456 0.022593979 -0.116879396 -0.011455021
0002b0 44 1c e4 3e 75 02 45 be 44 7f 23 3e 0b 88 41 be
       0.44552815 -0.19239219 0.15966517 -0.18899553
0002c0 4a f9 10 3e a2 40 38 be bd c1 a0 3e db f8 91 be
       0.14157596 -0.17993405 0.3139781 -0.28510174
0002d0 b2 7c 40 3d ad 60 9e 3d bb 7a 5d 3e cd d4 3b 3e
       0.04699392 0.07733283 0.21628849 0.18342896
0002e0 e4 b7 b3 3d b8 e9 d3 be a3 7a 8e 3e aa 00 93 be
       0.08775309 -0.4138925 0.2782794 -0.28711444
0002f0 a9 b3 f4 bc 40 9c de 3e 68 3a a1 be 53 cc 13 bf
       -0.029870825 0.43478584 -0.31489873 -0.5773365
000300 34 20 2c be ff b2 97 3d 6b 02 4a bd 29 5e 72 3e
       -0.1680916 0.07407188 -0.049318712 0.23668732
000310 e4 fe bc 3d 42 ba 5b 3e b9 93 68 be cf 63 2d 3f
       0.09228304 0.2145777 -0.22712602 0.6773042
000320 05 23 e7 3d 4b 18 cc be 08 5a 25 3e 48 74 82 3a
       0.11285976 -0.39862284 0.16147625 0.0009952867
000330 b8 d5 01 bd 31 ee 93 3d b2 6b 10 bf 34 a3 ea be
       -0.03169796 0.07223166 -0.5641433 -0.4582764
000340 2c 7a 38 3d 69 3b 48 be 52 b3 94 3e e1 3e c2 be
       0.045038387 -0.19553913 0.2904306 -0.37938598
000350 68 ee e4 3e a9 f2 1d bf c8 22 d2 3e 38 19 19 bf
       0.4471314 -0.61698395 0.4104216 -0.59804106
000360 d9 7e e6 3e 3c b4 bd be fa 0a 0b 3f 25 4b b3 bb
       0.45018652 -0.3705157 0.54313624 -0.0054716044
000370 99 20 bf 3e da 87 c6 bd cc 07 5c 3e 0a 46 57 be
       0.37329558 -0.096938804 0.2148735 -0.21022812
000380 29 da 3e be 2f 5d 98 be ea 5a c8 3e b4 3b 4a 3d
       -0.18637909 -0.29758593 0.39131862 0.049373344
000390 4f 0d d8 be 3b 04 fc be 18 a2 c3 3e 5c b0 db bd
       -0.42197654 -0.49221978 0.38209605 -0.10726997
0003a0 6e 8c 50 3e 1a 7f 36 be ec 8b 86 bc 53 c7 b3 3d
       0.2036607 -0.17821923 -0.016424142 0.087782525
0003b0 88 cb 3f 3e 81 22 f4 be bd e8 5b be 48 23 57 be
       0.18729985 -0.47682574 -0.21475501 -0.21009552
0003c0 12 a8 ee 3d f3 68 85 3e fe 06 a0 3e de 67 74 3e
       0.116531506 0.26056632 0.31255335 0.23867747
0003d0 6d 7c 9d be e8 47 8c bd 09 fd e1 3e a8 3f 1b be
       -0.30758992 -0.068496525 0.44138363 -0.15161002
0003e0 c8 97 90 3d a7 12 c9 3d ed c9 1c 3e 10 d8 1e 3e
       0.070602 0.09818011 0.15311404 0.15512109
0003f0 fc 8d d0 3e 30 9e 9f be 2d 47 a5 3e c7 41 1d 3e
       0.40733325 -0.31175375 0.32280865 0.15357123

layers.0.attn.Wv.weight f4 [32, 64]
000000 2b a1 14 3d 24 04 9f 3e cc 3b e3 bc 28 2b 57 bd
       0.036286514 0.31057847 -0.027738474 -0.05253139
000010 53 8a dd be 22 bd 41 3d 74 f2 b8 3e dd 57 e2 bd
       -0.43269596 0.04729951 0.36122477 -0.11051915
000020 26 7e 09 3d a5 9a 80 be 50 08 f9 bd d3 c8 91 3d
       0.03356757 -0.25117984 -0.121597886 0.07118382
000030 40 f2 72 3d 3e 84 30 3e 94 89 78 be 36 08 6f be
       0.05931306 0.17237946 -0.24271232 -0.23342976
000040 98 f5 a4 3e 31 c9 58 bd 19 81 d7 3e 16 b7 ab bb
       0.32218623 -0.052926246 0.4209068 -0.0052403314
000050 6f a7 ea 3d e9 ff 7a be b0 f7 70 bb 43 88 bf bd
       0.11457717 -0.24511684 -0.0036768727 -0.09352162
000060 15 8d d4 be ef 53 1b bf ec 4c d7 bb 4e a1 8a be
       -0.41513887 -0.6067495 -0.006570449 -0.2707619
000070 54 b2 65 bd 76 fb 58 3d 3b 9c f8 bd 8a ea 18 bd
       -0.05607827 0.052974187 -0.121391736 -0.03733305
000080 94 11 b0 3e 7a 6d 34 3e 36 2c d8 3c 55 4f 32 3f
       0.3438841 0.17619887 0.026388269 0.696523
000090 c8 04 b0 be f3 c9 d0 bd a0 ac 0e 3f c7 6a ea be
       -0.34378648 -0.10194769 0.55732155 -0.4578459
0000a0 0f c8 0c be df 0f 71 bd 9f 72 30 3d 45 b8 99 be
       -0.13748191 -0.058853026 0.04307806 -0.300234
0000b0 0d 4f d2 be 4a f3 b7 be 2f 28 b3 3e 3c df 14 be
       -0.41075936 -0.35927802 0.34991595 -0.14538282
0000c0 03 d2 15 bd ce 3c ef 3e 11 b1 d3 bd 8c 8e 03 bf
       -0.036577236 0.46726078 -0.10336507 -0.51389384
0000d0 31 c7 d2 3e 75 2e 4d bf cc ba 1d be 2b ab 05 3f
       0.41167596 -0.8014901 -0.15403289 0.52214307
0000e0 f8 15 99 3e 9a e6 b3 3e 27 20 c0 be df ed 00 3f
       0.29899573 0.35136873 -0.3752453 0.5036296
0000f0 0a 6e 69 3b c1 16 17 3e fb 34 9c be 52 87 32 3e
       0.0035618567 0.14754774 -0.3050917 0.17434433
000100 77 05 5d 3e 30 5d 02 be 06 02 f7 bd 3f 0e d7 3d
       0.21584116 -0.1273086 -0.12060933 0.10500764
000110 7c 64 b3 3d 64 36 85 3e f4 1e 15 be 85 29 ea bd
       0.087594 0.2601806 -0.14562589 -0.114337005
000120 f6 20 a7 3d cd f9 35 be 70 c6 79 be 68 86 bd 3d
       0.08160584 -0.17771073 -0.24392104 0.092541516
000130 dc 94 b2 3d f4 76 86 bd f0 59 2e 3e 0c 59 b4 bd
       0.08719799 -0.06565657 0.17026496 -0.08806047
000140 98 39 f7 3c 8e 27 b3 3d 62 c6 9b bd a6 52 7c bd
       0.03017883 0.08747779 -0.07606198 -0.061602257
000150 c0 c4 32 bd 10 e2 1c 3e 02 98 07 bf 29 da ae be
       -0.043644667 0.15320611 -0.5296632 -0.34150818
000160 fd fb 85 be de 6d c8 bb b7 1c af 3e b7 76 09 bf
       -0.26168814 -0.006116613 0.34201595 -0.5369677
000170 f1 69 2c 3f 97 d5 d3 be 31 12 cb be ed 70 c7 be
       0.67349154 -0.41373894 -0.39662316 -0.38953343
000180 88 2e c8 bd 4a 5f da 3e 61 12 f6 3d 99 29 4b be
       -0.097745 0.42650825 0.12015224 -0.19840087
000190 60 1f a0 3e 74 2d b6 be 42 46 83 3b 90 d3 a6 3d
       0.31273937 -0.35581553 0.004006178 0.08145821
0001a0 9b 66 8d be 49 cc 94 3d e4 63 14 3f a4 3a 61 3e
       -0.27617344 0.07265527 0.5796492 0.21995026
0001b0 1a e6 9a 3e 0e 0f e4 bc 1e e3 0d bf a4 bf d4 3e
       0.3025368 -0.02783921 -0.5542468 0.4155246
0001c0 b3 96 18 3c e1 f6 38 be 35 df 15 3e 5a 33 cc 3d
       0.009313273 -0.18062927 0.14635928 0.09970732
0001d0 66 d1 73 be 78 e8 9e be c8 67 19 3f 2b 43 bb 3e
       -0.23810348 -0.31036735 0.5992398 0.36574683
0001e0 bd 68 02 3f 1d 83 a3 3e bd 6a 51 bd b1 5b 24 3e
       0.5094107 0.3193597 -0.051127184 0.16050602
0001f0 2b 34 7f be f3 c6 09 bf 3f ac e7 3e ac 49 6e 3b
       -0.24922244 -0.538192 0.452486 0.003635983
000200 4b bb 86 bd e4 3f 9e 3e b8 b1 3b be 3f a1 84 3e
       -0.06578692 0.3090812 -0.18329513 0.2590427
000210 8c 6a c5 3e c9 5a 12 3e ee d8 ad 3e 48 2f e9 3d
       0.3855785 0.14292444 0.33954567 0.11385971
000220 d9 f3 cd 3d db 2c 89 3c 6a ed be 3e 3d 3e 17 bc
       0.10056276 0.016745022 0.37290508 -0.009231147
000230 dd 4f 94 3c 8e 53 7b bd 47 1c fa 3d f8 0b b0 be
       0.018104488 -0.06135898 0.12212425 -0.3438413
000240 82 ef 1c 3f 26 d8 6b bd 60 f9 c7 3e b9 33 58 be
       0.6130296 -0.057579182 0.39057446 -0.2111348
000250 8c bf 28 be cd 46 b0 3c 10 e9 9d be 23 eb ce bd
       -0.1647932 0.021518135 -0.30841875 -0.101034425
000260 3b 5b 5f 3c 84 69 bb 3d 09 23 b9 3e 28 8a f6 be
       0.013632591 0.09150985 0.36159542 -0.4815228
000270 81 fe 3a bf 17 7e eb 3e 04 61 5c be 26 c2 58 bd
       -0.7304459 0.45994636 -0.21521384 -0.05291953
000280 18 d3 e6 3e f2 a0 52 be b8 ae 6a be 01 2d 22 bf
       0.45082927 -0.20569208 -0.22918212 -0.6334992
000290 5f 9d 9a be f0 04 0b 3c 7d 30 42 be d5 4d ba 3e
       -0.3019819 0.008485064 -0.1896381 0.36387506
0002a0 1c c8 9e be 54 68 44 be c9 ff 12 bf b4 7c a4 be
       -0.31012046 -0.19180423 -0.5742155 -0.3212639
0002b0 77 79 63 3c e6 dc 60 be 3c 39 43 3f b3 be 0f be
       0.01388394 -0.21959266 0.7625921 -0.1403759
0002c0 23 f0 3e be b5 b7 71 3e 3b 9a 97 3e 6a 9d 94 be
       -0.18646292 0.23605235 0.29609856 -0.29026347
0002d0 23 21 ab be 7b f8 b3 3e 72 e2 c3 3e 0b cc 45 be
       -0.3342372 0.35150513 0.38258702 -0.19316117
0002e0 9b a9 9f be 4e ab 59 bc fd ee 25 bc 1a b8 9f bc
       -0.31184086 -0.013285471 -0.01012778 -0.019496966
0002f0 ee a5 9b be 39 36 e2 3b 92 5b 44 3e 8e 86 bf bd
       -0.30400032 0.0069034365 0.19175556 -0.09351836
000300 25 81 60 3e 28 b5 18 bc 12 93 07 3c 0c 27 9b 3e
       0.21924265 -0.009320535 0.00827481 0.30303228
000310 d5 be a8 3e 2a fb 81 3e a4 b5 5c 3e 69 e8 42 be
       0.32958093 0.25386935 0.21553665 -0.1903397
000320 cb dc 46 be 94 e2 df bd 50 f9 69 3e d3 67 18 bd
       -0.19420163 -0.10931888 0.22849011 -0.03720839
000330 be 2f 6f bd a8 fd 65 3d ca a0 86 be f5 5b 96 be
       -0.05839514 0.05615011 -0.26294547 -0.29367033
000340 85 8c 00 3e 24 fd 22 3e cc f2 16 bd 33 37 9f bd
       0.12553604 0.15916878 -0.036852643 -0.077742
000350 50 00 91 3d 45 17 18 3e dd a9 a9 3e 77 0a 85 be
       0.07080138 0.14852627 0.33137408 -0.25984547
000360 fc 7c 32 3d 6e d2 c3 3c c8 08 c1 3e ad 5c 8e be
       0.043576226 0.023904052 0.37702012 -0.2780508
000370 a9 9a ca 3c f7 66 b0 3d a2 36 0d be 9b f8 56 bc
       0.02473195 0.08613389 -0.13790372 -0.013120796
000380 a3 0c 1e bf 8e f1 f5 3e 84 8f 89 3e 1d b8 ac 3b
       -0.6173803 0.48035854 0.26867306 0.0052709715
000390 de 98 08 be 9e 5d ce be 14 58 2a be 5b 48 98 3e
       -0.13339564 -0.403058 -0.16635162 0.29742703
0003a0 23 f5 e5 3d f9 0c c9 bd 26 93 3d bf 49 5c a7 be
       0.11228397 -0.098169275 -0.74052656 -0.32687595
0003b0 e0 3f 47 be 47 1f 88 be 58 aa 19 3e 83 55 26 3e
       -0.1945796 -0.26586363 0.15006387 0.16243558
0003c0 9f c0 54 bc 32 77 9c be f6 4c 14 be 92 be fe 3d
       -0.012985378 -0.3055969 -0.14482483 0.12438692
0003d0 a9 b8 0b 3f 08 31 78 3d ef be 05 bf ab 7e f2 bd
       0.54578644 0.060593635 -0.52244467 -0.11840566
0003e0 45 e7 6a be 85 6d ba 3e d5 64 5b be 0a a3 1c bf
       -0.22939785 0.36411682 -0.21425183 -0.6118628
0003f0 64 ac aa bd b5 53 07 3f 65 cc a8 3e bd e6 f9 3e
       -0.08333662 0.528621 0.3296844 0.48808852

layers.0.attn.Wo.weight f4 [64, 32]
000000 c6 10 03 bf 3b 67 0e 3d ba dd f5 be 4a e8 36 bf
       -0.5119747 0.034766417 -0.48020726 -0.71448195
000010 30 ae 64 be aa f7 1a 3f 2e b0 2d bf 30 a9 54 3c
       -0.22332072 0.60534155 -0.67846954 0.012979791
000020 be d4 de bd 57 30 be 3f ce 29 0a bf ba f2 88 bf
       -0.10880421 1.4858502 -0.5397004 -1.0699074
000030 2b 86 0b bf b0 03 3c 3f c2 ac 1c 3f 00 ac 1a 3f
       -0.545016 0.73443127 0.6120111 0.604187
000040 a8 84 9f be 13 6c 8c 3f a9 1b 7c 3f 3f 4a 30 be
       -0.31155896 1.0970482 0.98479706 -0.17215823
000050 03 c3 40 be ab 35 0b 40 d3 86 5e 3f 94 41 7f bf
       -0.18824391 2.1751506 0.86924475 -0.9970944
000060 37 c7 b8 bf f1 53 01 c0 81 99 41 3f 71 2e 52 3f
       -1.4435796 -2.0207484 0.75624853 0.82102114
000070 4d f7 ef bd cd c4 5e 3f 5d 9a 72 3f 3f 0e d2 3e
       -0.11717091 0.87019044 0.9476679 0.41026494
000080 d0 6c 36 3f df ad 40 3f 91 6f b4 bf 4d 52 dd 3d
       0.71259785 0.75265306 -1.4096547 0.10806713
000090 c7 38 09 3f c7 65 a4 3f 7b da 45 bf ce d3 47 bc
       0.5360226 1.284356 -0.772865 -0.012196494
0000a0 df 6b 09 40 f8 de 76 3f ed 0c a5 3f d7 05 ae be
       2.147209 0.96433973 1.289457 -0.3398883
0000b0 1d 6b 86 3f 64 5b 38 bf 59 d6 ee 3f ae 15 55 3e
       1.0501438 -0.7201445 1.8659164 0.20809051
0000c0 b0 bd 99 3f 61 83 6d be 78 41 a3 bf 4f 3f 4b 3f
       1.2011013 -0.23194648 -1.2754354 0.79393476
0000d0 57 ff 3a bf f4 04 2d bf 5b 7b 84 bf 8c d1 1d 40
       -0.7304587 -0.6758568 -1.0350145 2.4659147
0000e0 9a f7 a5 be 2d 0f 92 bf d6 d8 0e bb ef 8f 50 bf
       -0.32415468 -1.1410881 -0.0021796725 -0.81469625
0000f0 16 a6 61 bf 89 b1 8a bf d2 6a 8a be 71 09 1f 3f
       -0.8814405 -1.083543 -0.27034622 0.6212378
000100 19 25 16 bf 26 00 2d 3f fc 9f 89 3e 5e e2 13 3e
       -0.58650357 0.6757835 0.2687987 0.14441821
000110 4c bb 64 bf a2 54 45 3f 01 78 03 bf 2d be ea bf
       -0.8934829 0.77082264 -0.51354986 -1.8339287
000120 41 9c cd 3e b0 65 3f bf aa 4f 5b 3f b5 2f 51 3f
       0.40158275 -0.7476454 0.8566843 0.8171342
000130 18 b9 92 3f 97 b8 d1 3f b7 79 3f bf fd 1f 31 3e
       1.1462736 1.6384457 -0.747951 0.17297359
000140 c9 ed 7a 3f 69 e9 ce 3f 94 a0 6e 3f d6 8e 8e bf
       0.9801908 1.6164981 0.9321377 -1.113734
000150 6a 7f 2c bf b0 40 2a 3f fe bc 8a 3d 65 48 8d 3f
       -0.6738192 0.66504955 0.06774329 1.1037718
000160 91 61 73 3f 23 65 62 be 71 d7 ad 3e 1e 10 29 3f
       0.9507075 -0.22108893 0.3395343 0.6604022
000170 19 2a f4 bc f1 35 15 3f ad 0c 51 3e 2c 61 ca bf
       -0.02980523 0.58285433 0.20414992 -1.5810905
000180 c1 2f a2 be 4a 74 a2 be e4 51 92 bf 1d 72 a8 be
       -0.31677058 -0.31729347 -1.1431241 -0.32899562
000190 aa 2c 0d 3f 36 16 92 be 40 1f ab bf 64 46 9d 3b
       0.55146277 -0.2853257 -1.3368912 0.004799651
0001a0 ee 60 67 3e 7c a8 7f bf 64 76 8d be 68 95 b2 3e
       0.2259557 -0.9986646 -0.27629387 0.34879613
0001b0 0d c6 1b 3e e4 0b e8 be 2d c2 90 bd 4f a5 13 3f
       0.15212269 -0.45321572 -0.07068286 0.57674116
0001c0 a9 92 2c be a8 2f 14 3f 55 d1 a7 bf 0c a8 e3 bf
       -0.16852821 0.5788522 -1.3110758 -1.7785659
0001d0 f8 44 2f bf ea 50 5b 3f fb b7 93 3f 19 35 fc be
       -0.6846461 0.8567034 1.1540521 -0.4925926
0001e0 ad 4b 9c be 44 7d 51 3f c7 64 7a bf 39 6a e3 bd
       -0.30526486 0.81831765 -0.97810024 -0.11104245
0001f0 ad 5e 13 3f 67 44 20 bf f4 16 d8 3d 90 85 f1 3f
       0.5756634 -0.62604374 0.10551253 1.8868885
000200 6a c0 ef 3f a7 2b 99 bf 84 63 ce be 72 27 4d 3d
       1.8730595 -1.1966447 -0.403103 0.050086446
000210 f5 6e 4a be 97 2a b8 bf 7b 90 e1 be 6c a2 46 3f
       -0.19768889 -1.4387997 -0.44055542 0.77591586
000220 a3 e8 8b 3f 3b c4 e8 3e a4 c1 56 3f df 50 59 be
       1.093037 0.45462212 0.8388922 -0.21222256
000230 77 49 8d be 14 01 5a 3f 05 d2 4c 3f ae f6 38 3c
       -0.27595112 0.85157895 0.80007964 0.011289282
000240 61 d6 95 3e ac 4e 11 3f 95 01 9f be 47 b8 ae 3f
       0.2926512 0.5676067 -0.31055894 1.3649987
000250 1e f0 51 be d7 2c 4d 3f d4 9f 17 bf 06 65 6f be
       -0.20501754 0.80146545 -0.59228253 -0.23378381
000260 99 ad 6e 3f 21 2b a4 3f 36 b0 d4 3e aa 3b ae bd
       0.9323364 1.2825662 0.41540688 -0.08507474
000270 5b 85 3e be e1 fd a8 be d8 48 1a bf 15 a9 01 3d
       -0.18605559 -0.33006194 -0.602674 0.03165539
000280 c8 4d 81 bf 33 23 32 bf 65 81 d3 3e aa 82 5b bf
       -1.0101862 -0.6958496 0.41309658 -0.8574625
000290 00 3c 0d bd 99 a4 c7 bf 01 a4 49 bf d0 c2 1d bf
       -0.03448105 -1.5597106 -0.78765875 -0.61625385
0002a0 58 f0 c3 be 3b 78 ee 3c 0a b1 bd be e1 60 14 3f
       -0.38269305 0.029110065 -0.37049133 0.57960325
0002b0 65 c3 61 bf b1 26 a7 be e4 1f f0 3d cd 22 a3 bf
       -0.88188773 -0.32646707 0.11724833 -1.2744995
0002c0 de 18 00 bf 2d ac a5 3e 3f 94 91 3e 0b 54 1b 3f
       -0.50037944 0.32357922 0.28433415 0.60675114
0002d0 e1 b8 91 bd be aa d7 3e 26 36 7d bf 2b 6f a4 3f
       -0.07115341 0.42122453 -0.9891075 1.2846426
0002e0 94 68 48 be b2 54 86 bd 02 e4 82 bf 0c 81 8a be
       -0.19571143 -0.06559123 -1.0225832 -0.2705158
0002f0 71 f3 ff 3e 7d 03 8b 3f c1 ba 6d 3e d8 96 c6 be
       0.4999042 1.086044 0.23215772 -0.3878696
000300 cf 93 b9 be e3 d6 64 3f b4 92 1c bf 64 80 96 be
       -0.36245582 0.8939039 -0.6116135 -0.2939483
000310 ee 00 3e bf 13 9c 9d 3f 70 fb ab 3d 01 b3 3a 3e
       -0.7422017 1.2313255 0.08397567 0.18232347
000320 0e cb 10 be 41 5b ad 3c 5e 26 8b bf 41 6c e0 bb
       -0.14139959 0.021161677 -1.0871084 -0.0068488424
000330 39 71 c4 3e 9e 92 2e bf 36 0e 2d bf ad fc 40 be
       0.38367632 -0.6819247 -0.6759981 -0.18846388
000340 ad 7d aa 3c 9e d7 8b be 1e 48 81 3e 45 ff 86 3c
       0.02081188 -0.2731294 0.25250334 0.016479144
000350 cd dd a6 3c 14 b8 e4 3e 89 83 0c bf c7 0d 73 bd
       0.020369435 0.4467169 -0.54888207 -0.05933931
000360 3c 37 02 3f c6 02 4b 3f 7d e1 a5 3e 16 f4 9d be
       0.5086553 0.79301107 0.32398596 -0.30850285
000370 47 ff 17 3c 6d af 22 bf 50 ee 14 3f 57 00 0e bf
       0.009277171 -0.6354893 0.58176136 -0.5546927
000380 6e 19 0e 3e c0 2e b4 3e c7 fd 84 3c cd 18 86 bf
       0.13876888 0.35191917 0.016234292 -1.0476319
000390 c5 74 11 3f f4 ef a0 3e 3a b8 21 3f a8 d7 58 3e
       0.568188 0.3143307 0.6317173 0.21176016
0003a0 36 de a4 be 7b 22 88 3c 1c f4 2a 3f 79 a3 aa bf
       -0.32200783 0.016618004 0.6677873 -1.3331138
0003b0 57 e5 3a be f5 c1 81 3f dc 84 61 bf 01 52 9f 3d
       -0.18251549 1.0137316 -0.8809335 0.07779313
0003c0 86 4b 51 3f 51 00 3f bf fe c4 e4 bd 02 7c 60 3e
       0.81755865 -0.7460986 -0.11170386 0.21922305
0003d0 21 a3 89 3f 01 d5 50 be 4b 08 1e 3f a9 5e 8a 3d
       1.0752908 -0.20393755 0.61731404 0.06756336
0003e0 88 73 e1 3e bf ea 1c 3e 1b 88 fa 3d b1 6e 41 bf
       0.44033456 0.15323924 0.12232991 -0.75559527
0003f0 77 74 ed 3e 8a 46 a5 be a1 05 5c 3d ce e3 8e be
       0.46377918 -0.3228038 0.053716306 -0.27908176
